model_North.pth (torch, 150688 bytes, 38 tensors)

fc1.weight f4 [43, 37]
00000000: 83e5 acbd 2298 10bc d36b 9bbe 2bf7 b93d
00000010: 5cd9 233e 191b 593e 2ac2 e23c 391d 21bd
00000020: e75e 13be f29f dabd 4b1d 113e a0d8 2cbe
00000030: 1aa8 76be 4c0a 0ebe af57 f5bd 938f 333e
00000040: 3e75 973d 8067 a1bd f6b7 41bd 6fcd b4bc
00000050: b7dd 7dbe efe8 593e 8756 b5bd 6979 d5bd
00000060: 2e71 7cbe a93a 3a3e 99c7 8bbe ba0e 8b3d
00000070: af16 673e 8f68 4a3e 41d1 0a3d cc44 acbd
00000080: 36ee f03d b06c 493d ca2e 22be 7087 043e
00000090: 7eef 07bf 474b 993d fac3 643d 26ab acbe
000000a0: 0af5 e03e 9e50 573e 4022 58be 22c1 edbe
000000b0: 3efb 91bc 15b2 e5bd daf3 803e 0078 26bd
000000c0: 7ffd 2fbe 3602 cabd 0349 0e3e f4d8 c23c
000000d0: 477b a93d 0d4e e4bd 8af6 f2bd 4443 b43d
000000e0: 5914 1a3c f1ef ba3d 4068 943d db89 4abc
000000f0: 699c 7c3d f00b 013c 5c1e f63d 14a5 853d
00000100: 3d7b 87be ced3 cb3d 8291 65bc 6c75 77be
00000110: 7491 44bc 410f 9cbd 18fe d0bc f72d 09be
00000120: 0dfc 033d 0973 913d 231f 6dbd 57ab 6c3e
00000130: 389e 8d3e 4134 c5be 982b 6f3d efa2 873e
00000140: 7aa3 a43c a523 e2bd a4ba cebb 79ca e73c
00000150: b633 323e f424 b3be 9b5b f83d fb21 93be
00000160: e48d cdbd e243 413e 468d 483e 60ac 23be
00000170: 5017 28be 4d1b c2bb f28d 3d3e cc8e 80bc
00000180: 7c36 7d3e 1118 82be 5290 c5be fbf7 a0bd
00000190: cbb5 713d c654 a63d 2705 0a3e 1930 5bbe
000001a0: 5932 5cbe cb7b 893e 8f74 27be 4209 1fbe
000001b0: 30c5 dcbd 86d9 d33d 55a6 4bbd 7bce c53e
000001c0: 0b05 48be 455c e93e 05fc 8bbc 3388 1ebe
000001d0: 735f 2bbd f7ee 38bd 32ae db3b f0e3 f7bd
000001e0: 9c69 83be 21fe 5cbe 19ff 693d 94bd 843e
000001f0: d5aa d6bd 1dfa b7bd 5f31 69be fdc7 ca3d
00000200: 8c88 933c 28ef 76bd abfe bfbe b7e0 0d3e
00000210: 986e a1be 2042 60bc 5cfc a53c 14e6 73bd
00000220: 8862 983e a53b e13d 160e 163e c9d0 3a3e
00000230: 9bbb fdbd 2d1d 95be 9edb 6a3e 255e 1cbd
00000240: 2931 39be acd7 f63c 7fcf dcbc 5ffa c5bd
00000250: 2794 d1bd 7b82 4c3e 4dbb a3bd 4669 bb3e
00000260: 8e4a 01be 8149 7fbe 90ef d13d 7842 293e
00000270: 6115 dbbc 30b4 ab3a 1a0f 7a3e bfe5 07bd
00000280: 713a 9ebd 12bd ff3d c4ed fe3c b8c0 103a
00000290: 9dd2 c93e a482 5ebe 597a 8d3e 6cc9 70be
000002a0: 7178 87be cf13 92bd 3b88 2bbc 983d c53e
000002b0: 6f05 19be 79ac 113d 3bdd 5dbe 03d7 34be
000002c0: 049b ebbc 5453 aebc 2f45 d03e 8a1a 883d
000002d0: 084e 9abb 05e5 06bc 4315 ce3b fc26 c33d
000002e0: c85d ad3e 3bee 6bbe b308 00bd fafa 883d
000002f0: b392 31be 8df7 823d 78e9 88bd 6c22 653e
00000300: 7075 dc3d 5b45 5dbe 7d9e 073d 5382 d8bd
00000310: 38f4 373e 6235 00be c2dc c0be a0b1 aabe
00000320: a811 813d 69f7 9a3e 9269 5c3e 755e 95bd
00000330: 859a f83c c6a9 10be e8cf abbd 7811 513d
00000340: 1a3d 0dbe bc55 d1bd 6d77 3ebd 38a6 43bd
00000350: 7601 17be 84c4 19be 994f 823d 64bb 303d
00000360: e668 92be 65b1 463e 9d0b 833e e8ec 5e3b
00000370: 6cde 84bc fbbd 09bd 6e88 62be 5625 2a3e
00000380: 8ee8 cbbc 1708 49bc 4d5c abbe 8e1c 4bbe
00000390: b7be a03d 6427 c2bc 16aa be3c 3b9f ce3d
000003a0: 2eb6 2d3e 1c1d 843d 7d99 373e b4f7 abbc
000003b0: 6afb c9be 52be 0cbd ba0f a5bd 5fb4 953d
000003c0: 5bd6 91be 9466 a4bd 933a 8b3e 9da6 b63d
000003d0: c500 0ebe 32be 11be 70e3 df3d 9c43 af3d
000003e0: 4f00 efbd 025a b13d f210 023d 72f0 643d
000003f0: 2a66 8c3e 0090 a5be 6a29 8a3d f658 ecbd
-0.084422134 -0.008825334 -0.303557 0.09080347 0.16000885 0.21201743 0.027680475 -0.03933451
-0.14391671 -0.106750384 0.1417133 -0.16879511 -0.24087563 -0.13871115 -0.11979615 0.17535238
0.07395409 -0.07881069 -0.04729458 -0.022070615 -0.24791609 0.21280263 -0.088543944 -0.10423548
-0.2465255 0.1818644 -0.27300718 0.06789918 0.22567247 0.19766448 0.033890966 -0.084115595
0.11764185 0.049175918 -0.15838161 0.1294229 -0.5309981 0.07485061 0.05585096 -0.33724326
0.4393695 0.21026847 -0.21106815 -0.4643641 -0.017819997 -0.11215607 0.25186044 -0.040641785
-0.17186545 -0.09863703 0.1389504 0.023785092 0.082754664 -0.111476995 -0.1186343 0.088018924
0.009404265 0.091277964 0.072464466 -0.012361969 0.0616726 0.007876381 0.12017509 0.06525627
-0.2646121 0.09952508 -0.014011743 -0.24165887 -0.011997569 -0.07620097 -0.025511786 -0.1339644
0.032222796 0.07102019 -0.057891022 0.23112236 0.27659774 -0.3851643 0.058391184 0.26491496
0.020097483 -0.11041955 -0.0063088704 0.028294789 0.17402539 -0.3498913 0.12126847 -0.28736863
-0.10036829 0.18873551 0.19585142 -0.15983725 -0.16415143 -0.0059236647 0.18511179 -0.01569309
0.24727815 -0.25408986 -0.3858667 -0.078597985 0.059011262 0.08121638 0.13478528 -0.21405067
-0.21503581 0.2685226 -0.16353057 -0.15530875 -0.10779798 0.10344224 -0.049719173 0.38634095
-0.19533174 0.4557821 -0.017087946 -0.15481643 -0.041839074 -0.04514977 0.0067041153 -0.121040225
-0.2566651 -0.21581317 0.057128046 0.25925887 -0.104818024 -0.08983252 -0.2277274 0.09901426
0.018009447 -0.06028667 -0.37498984 0.13855253 -0.3152969 -0.01368764 0.020261936 -0.05954559
0.29762673 0.109977044 0.14653811 0.18243708 -0.123892985 -0.29123822 0.2293534 -0.03817572
-0.1808516 0.030132137 -0.02695441 -0.09666895 -0.10233336 0.1997165 -0.07994709 0.36603755
-0.12626097 -0.24930383 0.10250771 0.16529262 -0.026743593 0.0013099965 0.24419823 -0.033178087
-0.077259906 0.12487234 0.031119235 0.00055218814 0.39418498 -0.21729523 0.27632406 -0.23514336
-0.26459077 -0.071326844 -0.010469492 0.38523555 -0.14943479 0.035564873 -0.21666424 -0.17660145
-0.02876044 -0.021279968 0.40677783 0.06645687 -0.004709009 -0.008233313 0.0062891557 0.0952892
0.33860612 -0.23040096 -0.031258296 0.06688495 -0.17341118 0.06394873 -0.06685156 0.22376412
0.10764587 -0.21608488 0.03311013 -0.10571732 0.17964256 -0.12520364 -0.37668425 -0.33338642
0.06302196 0.30266884 0.21524647 -0.07293407 0.030347118 -0.14127263 -0.08389264 0.05104205
-0.1379284 -0.10221431 -0.046500612 -0.04776594 -0.14746651 -0.15016371 0.06362838 0.04314746
-0.28595656 0.19403608 0.25594798 0.003401572 -0.01621934 -0.033628445 -0.22122356 0.16615805
-0.024891164 -0.012269995 -0.33468857 -0.19835111 0.07848876 -0.023700424 0.023274463 0.100889646
0.16964027 0.06450865 0.17929645 -0.020992137 -0.39449626 -0.03436119 -0.0805964 0.07309794
-0.28483853 -0.08027378 0.27193126 0.08918498 -0.13867481 -0.1423271 0.10932052 0.08557817
-0.11669981 0.08659746 0.03175444 0.05589337 0.27421695 -0.32336426 0.0674618 -0.115404055

fc1.bias f4 [43]
00000000: a99c aa3e 1e99 cebe 2c73 14be 40bd 01be
00000010: 1804 c2bc de6c 7b3e 49b6 14be a0cc c13e
00000020: a750 8bbe f923 5fbe 17b8 b93e f694 8b3e
00000030: d2e9 6cbe 0fe6 d6bc 39aa b8bd 3f8e 17be
00000040: 521e 513d 24c2 6dbe 856e cfbe e67b c13e
00000050: 6783 2ebe 65ef a63e 7076 e03e ff85 2fbe
00000060: 7e56 babd 6244 033e d44e 8b3e 5c96 a53e
00000070: cc8d c23e f461 f1be 9210 873e 8093 d3be
00000080: 95b4 503e 83d9 823e e21a 533c 9b76 e7be
00000090: 61d9 2dbe 53e1 0bbe c131 d4bd 714d b9be
000000a0: ed3d 74be 2e5d 3c3e 2946 36be
0.33322647 -0.40351194 -0.1449706 -0.1266985 -0.023683593 0.24553248 -0.14522661 0.3785143
-0.2720997 -0.21791066 0.36273262 0.27262086 -0.2313607 -0.026232747 -0.090168424 -0.14800356
0.051054306 -0.2321859 -0.40514007 0.3778984 -0.17042314 0.3260452 0.4384036 -0.17140959
-0.09098528 0.12819055 0.2720858 0.32341278 0.37998807 -0.47145045 0.2637983 -0.4132347
0.20381387 0.25556573 0.012884827 -0.45207676 -0.16977455 -0.13660173 -0.10361052 -0.36191896
-0.23851748 0.1839492 -0.17800201

fc2.weight f4 [29, 43]
00000000: 4f6f 69be d532 5d3d 9d67 06be fe0b 303e
00000010: 3ec2 e73d c62e 8b3d 60e0 2e3e 5e58 d33d
00000020: 22bb d53c b75d a1be 853d 963e 0240 513e
00000030: 9071 4abc 9294 24be d0e8 eebd dfc8 8dbe
00000040: be0a 67be 4b8f b13e 141a 1f3e 5f80 5bbe
00000050: e942 8bbd aeef 6f3e 806c 69be 1f18 20bd
00000060: db38 223e dce3 53bd e7d0 86bd c017 913e
00000070: 5bc9 a9bd ee55 263e 21ed 8d3e d159 a8bd
00000080: f8ba 91bd c437 51bc 00b9 a63e 5e07 f5bd
00000090: 97ff 9b3e ccea 9f3e 81f1 173e 0f33 463e
000000a0: ab00 e6bd cbdb bfbd b62e 9c3c 9ddb 923e
000000b0: 5127 e23e 611b 83be 28f1 1c3d e924 013f
000000c0: 0571 323c 2146 053e 4355 1abe 7ca6 9bbe
000000d0: 6039 d83e eca1 91be a810 54bd bb90 7c3d
000000e0: 0da1 2fbe fde0 f63e 665a 08ba 654d f03c
000000f0: 92fa e03c 8989 ee3e cc46 073c 6e61 9b3e
00000100: 3774 ab3d 6937 a0bd bde8 a6bd 6bfb 423e
00000110: f69d 60be f464 8a3e 2046 c73d d0b4 b73c
00000120: 74f1 833e 479d ee3d b4e6 f33d 38f9 88bd
00000130: a80e 9ebe 661a db3c ecbc ed3d 358b dcbe
00000140: ba9b 923d fa81 cf3e 1ed6 163e 169d 273c
00000150: a72d d0bd 69ba 443e 206d 9cbe af7e 2fbd
00000160: 30c8 663d 1d84 1a3e 8ed7 8e3e ba2e 9bbd
00000170: 87c9 b6bd 7530 d2be fc07 5cbe 306b 883e
00000180: 8c4c e33d 19d3 573d 9fe5 f33d 5852 413e
00000190: 1bea 83be fdb8 bbbd 5d48 503d 84d6 963d
000001a0: b008 76bd c5e4 0bbe ed23 6c3e 19ec 91be
000001b0: d462 bcbe f5c1 b73b 5f8f 803a 631f 59be
000001c0: 79ba b2be 2ccc 6ebe 7867 9cbc 03e5 743e
000001d0: 5754 393d 2245 4f3e dbb5 dbbd 3347 91be
000001e0: cb98 353e b14f ca3e 59ed abbd d922 4c3d
000001f0: 5c40 3abc 2b8c 6d3e 0099 c13c ff0a a3be
00000200: d681 bb3e e3e6 e03e 839c 603c 0c26 2dbe
00000210: dd46 d7bd e085 273e 8441 f8bd 23f6 82bd
00000220: c9df 5f3e d759 a4be 86f7 b23d 36f7 7bbe
00000230: c790 953d c103 b23d 9059 9bbe 2c6c d9bc
00000240: 029d e5bd 50a8 d73b 65f7 80be 594a 98be
00000250: f05b 2ebd 0cf5 dfbd 1dd0 c0bd 4559 203e
00000260: 608f 6b3e 028a 09bd 9656 0abe 5560 ff3c
00000270: 764c c63d 5fd5 9d3e f3a8 a1bd e06f 793d
00000280: 78f0 65be 4e96 5b3e 0682 a13e da89 673d
00000290: cb6b b4be 1870 95be 7724 52be 8ef3 e8bd
000002a0: f021 cf3d f2cb c43d 29c3 453d f02a e0bd
000002b0: 4313 fbbd 4222 8abd 8646 20be ddde 4ebe
000002c0: f7e5 0dbe c1de 6dbe 955e a8bd 4321 7d3d
000002d0: a373 813d 2706 f53d 6fe9 073e 3048 b4bd
000002e0: f368 f1bd 3d50 693e 8547 b93c 2b0d 86be
000002f0: 4830 41be c7ef f1bd 20eb a4bd 3ffa 503e
00000300: 8dd8 89be 9c7c e13e a098 7b3e 5b59 663e
00000310: a424 1f3e 4eaa a43d d151 74bd c8b2 9e3e
00000320: 7a81 643e 32d8 d5bd 68d5 2dbe f4c0 1f3e
00000330: 9893 0b3e e41f 623e 4e8a 26be cedd fbbe
00000340: 2c54 343d bc93 dbbd a39a d93d 4be3 063e
00000350: f6db 45be bdce 97bc 73ef 9cbe 93c9 db3d
00000360: f5ad ba3d 162b 103e 2329 0ebd e24c 87be
00000370: f3a8 28bd 80c6 3b3e 3167 e23d b64e 81be
00000380: 8e38 953e 0ea7 4bbe 4c9f a6be e4b4 15be
00000390: 01d9 b03e b328 c8bc c9ea 263d 6da7 b2be
000003a0: a2a3 20be fea8 8a3e ccae 12be 7433 bf3d
000003b0: f2b1 793d 3aa7 d0bc 1365 fe3e 7137 f4bd
000003c0: e06b 38be 85f5 60bd bad2 d4bd 2b25 8d3e
000003d0: 0cb1 4f3e b630 b4bc 3382 013e 0c30 3cbe
000003e0: 878f 8ebe ef57 3f3d 87a5 b7bd 6d8f a9be
000003f0: 1858 753d 8201 05bd 5a5d 8dbe 2f6c b6bd
-0.22796367 0.054003555 -0.13125463 0.17192075 0.11316346 0.06796031 0.1707778 0.10319589
0.026090208 -0.3151681 0.2934381 0.20434573 -0.012356177 -0.160723 -0.11665499 -0.27692315
-0.22562692 0.34679636 0.15537292 -0.21435688 -0.067998715 0.23431274 -0.22795296 -0.039085504
0.15842001 -0.051730976 -0.06582814 0.28338432 -0.08290359 0.16243717 0.27719977 -0.08220256
-0.071157396 -0.012769643 0.3256302 -0.11964296 0.30468437 0.31233823 0.1483822 0.19355415
-0.11230596 -0.09368094 0.019065242 0.28683177 0.4417062 -0.25606826 0.038315922 0.50446945
0.010891204 0.13015033 -0.15071587 -0.30400455 0.42231274 -0.2844385 -0.051773697 0.061661463
-0.1715128 0.48218527 -0.00052014587 0.02933378 0.027463231 0.46589306 0.008256625 0.3034777
0.083717756 -0.07823069 -0.0814986 0.19041221 -0.21935257 0.27030146 0.09730172 0.022425085
0.25770152 0.11651092 0.119092375 -0.0668816 -0.30870557 0.026745986 0.116082996 -0.43074957
0.07158609 0.40528852 0.14730117 0.010230323 -0.101649575 0.19211735 -0.30552006 -0.042845424
0.056343257 0.1508946 0.2789883 -0.07577272 -0.08925157 -0.41052595 -0.21487421 0.26644278
0.110985845 0.052691553 0.11909031 0.18879068 -0.25764546 -0.09166143 0.05085026 0.07365134
-0.06006688 -0.13661487 0.2306058 -0.2850044 -0.3679415 0.0056078383 0.0009808353 -0.2120338
-0.34907892 -0.23320073 -0.019092306 0.23915486 0.04524645 0.20241216 -0.107280456 -0.28374633
0.17734067 0.39513925 -0.0839488 0.04983792 -0.0113678835 0.23198001 0.023632526 -0.31844327
0.36622494 0.43926153 0.01370919 -0.16909045 -0.10511563 0.16359663 -0.12121871 -0.06394603
0.21862711 -0.32099792 0.087386176 -0.24606022 0.07303005 0.08692122 -0.30341768 -0.026540838
-0.112115875 0.0065813437 -0.25188747 -0.29744223 -0.042568147 -0.10935411 -0.094146945 0.15659054
0.23003912 -0.03357888 -0.13509592 0.031173864 0.096825525 0.30826852 -0.07893553 0.060897708
-0.22455013 0.21444055 0.31544513 0.05652795 -0.3523849 -0.29187083 -0.20521723 -0.11374579
0.10113895 0.09609212 0.048281822 -0.1094569 -0.12259533 -0.067448154 -0.15651903 -0.20202203
-0.13857256 -0.23229505 -0.08221165 0.0617993 0.06320884 0.11964064 0.13272642 -0.08802831
-0.117875956 0.22784515 0.022617111 -0.2618192 -0.18866074 -0.11813312 -0.08052659 0.20407961
-0.26923028 0.44040382 0.2456994 0.22495024 0.15541321 0.080402955 -0.05964834 0.30995774
0.22315016 -0.104416266 -0.1697594 0.1560095 0.13630521 0.22082478 -0.16263697 -0.4919266
0.044025585 -0.107215375 0.10625198 0.13172643 -0.1932219 -0.018531198 -0.30651435 0.107318066
0.09115211 0.14078936 -0.0347072 -0.26425844 -0.041176748 0.1833744 0.110548384 -0.25255364
0.2914471 -0.19887945 -0.3254341 -0.14619786 0.3454056 -0.02443347 0.040751252 -0.3489336
-0.15687421 0.27082056 -0.14324492 0.09335986 0.060960717 -0.025470365 0.49686489 -0.11924637
-0.18009901 -0.054921646 -0.103917554 0.2756742 0.20282382 -0.021995883 0.12647323 -0.18377703
-0.27843878 0.04671472 -0.08967119 -0.33117238 0.059898466 -0.03247214 -0.27610284 -0.08907353

fc2.bias f4 [29]
00000000: 2127 803c b58c 95be ffc0 9bbe 116d 1b3e
00000010: 54e3 463e 194a b43d 5cd6 363e ece0 93be
00000020: aece 213e 5ea8 43be ae33 a03d dabe 1dbe
00000030: 6837 d83c 3b4c 103e 41c8 483e 73e7 4e3d
00000040: bc7a 81be 7139 84be dc12 6f3e 11f9 bbbd
00000050: 93b0 b53c b96a 30be ad48 57be cd9f e63c
00000060: 6892 a03d ff90 92be cc3f c83e 94d8 193e
00000070: a6d4 14be
0.015643658 -0.29208913 -0.30420682 0.15178324 0.19422656 0.088031955 0.17855209 -0.2888254
0.15801498 -0.19107196 0.07822357 -0.15404835 0.026393607 0.1409158 0.19607641 0.050513696
-0.2528895 -0.25825074 0.23347038 -0.09178365 0.022178924 -0.17228211 -0.21023817 0.02815237
0.07840425 -0.28626248 0.39111173 0.15024024 -0.14534244

fc_value.weight f4 [11, 29]
00000000: a51e 633d 007e 7a3e eb48 333e ddcf 05bf
00000010: 5a51 eebe e7d8 a53e 2c46 05bf d048 da3e
00000020: f2e5 073d f8ee 063f ffb3 263d f3eb 753e
00000030: d7f5 21bd 666d e9be f1c5 623e ca8e 5bbe
00000040: 779f 343d fc8b 0f3e 8401 deba 2e00 3c3e
00000050: 96b0 cdbd 1ad0 dc3e cb6c 1c3e b98e 8dbe
00000060: d8c4 803d 730b c1bd 44fd 04bf 51ed 86bd
00000070: 2dbe 913d b8ad 193e 7fdb 493e 7d96 723e
00000080: 2c82 163e a51d aabe 98f5 3e3e 6c79 fcbe
00000090: b68a 98bd 693b 06bf 09ae d23e 702f 513e
000000a0: b18b 463e 7a76 4f3e d996 0cbf 95e9 97be
000000b0: 3786 ad39 b308 053f d762 4d3e a3d0 9a3d
000000c0: 1fdd 033f ec1e 3fbe 83cb 153f c1bb dd3e
000000d0: a055 cbbd 40d8 d53d 89fc 123c 9170 94be
000000e0: 9885 5ebe 97d9 cd3e b592 90bc 788c a7be
000000f0: f471 9cbe 6ef8 023e 8909 b23e 90af 873d
00000100: c288 8d3a 76f3 0fbf d7d5 2c3d ccb7 8c3c
00000110: 67a2 8ebe 0453 84ba 10d0 893d 43ab e93e
00000120: c601 c5be f520 9d3e 5875 6abe d938 5dbe
00000130: 8cf7 cb3e 13f7 12bf eb06 b93e f274 ce3d
00000140: 945e 6ebe 2340 063f eb62 143e 9d53 343d
00000150: 5217 003f 8007 9bbd 2dec a5be 37d7 0f3e
00000160: 1373 353e e030 e13e 424d 903d fb71 abbd
00000170: f3dd 83be f3a2 eabe ca44 103f 607e 83be
00000180: 9577 713e 87d4 38be b094 6abe 6fc4 bebe
00000190: 4188 11bb 5944 7c3e 87ec 2abe a8ae 80bd
000001a0: e711 803e a757 12bf e93b 773d 4bc5 123e
000001b0: 0aaf 133e 66d9 143c 00cc 83bd e7dc 363e
000001c0: f401 ae3e 1f00 19bf 0237 aebd 8ade c43e
000001d0: 2e92 663e c718 463d fd86 f6be 101f 2a3e
000001e0: 5577 1c3e 24ae 5e3d 65bf fc3d cdc9 39be
000001f0: 112a e53e 0c1c 3dbe 0a09 16bd ac7a 443e
00000200: 6a33 ccbd 71f2 853e d5ea 1b3e e580 023e
00000210: bd4d 72bd 96a4 ac3d 7707 b53e 67f3 39be
00000220: 7441 3f3e abc0 e3be 3bb9 08bf 4538 813d
00000230: 7d4b bfbe 6a93 a6be 49f9 143e eb14 6fbe
00000240: 84b1 b5bd 3023 103e 115c b23e fdc5 dc3e
00000250: b487 fcbe 10a0 823d 966d 3f3e 2246 bcbe
00000260: 23fd 123f f08f 0ebe ae56 06bd f4eb 85be
00000270: e919 8d3c 2afe 983d 3dea dbbe d0de 9ebe
00000280: 7a33 f53b 45f6 e63e 61e6 b83d a361 97bd
00000290: f798 f73e 68bc ddbd 76ab 5d3e 7fa8 dfbd
000002a0: 633d 86be be1f 90bd 7ebd a6bb bcbe bbbe
000002b0: 24d4 14be 16e3 a23e d684 603e 8144 c5be
000002c0: eb0c 06bf f353 043f b925 613e 1325 603e
000002d0: 3fb1 a23e 5b42 13bf 37f2 d33e 7251 3a3d
000002e0: 0715 343e 4fa8 143e 82bc ba3e f149 303d
000002f0: df41 bbbe a5c6 353e 2dcc 9cbe 4d60 edbe
00000300: 11af 8b3e 492d a2be ca4d ea3e 4bd1 cf3c
00000310: 9e8d b9be a813 cc3e 2604 a1be 3ee9 e6be
00000320: 58d4 9d3e 962e af3e 40f9 e4be 152b b83e
00000330: 5321 d83b 40d3 7bbd 70f5 fa3c f82a f53e
00000340: cf2a 2cbc 93ee bc3d 2003 67be 6d5e 123f
00000350: 7c6b ccbd 63eb 1e3e 8557 e73d b969 da3e
00000360: 1346 1e3f 0c57 333e eca7 bbbd a54e 3bbe
00000370: 22ce 15bf 23d1 2d3f d7b9 7fbd 60f5 013f
00000380: f801 c4bd 88ff 22bf 862c 083e 5c66 7cbe
00000390: ce51 03bf 04ee 573e 103e 193c fd91 a8be
000003a0: 9476 9cbe 5a3e 283e b851 bf3e 1426 c8be
000003b0: 09db f53c 5d55 b9bc 084f 9abd e993 db3d
000003c0: deca 02bd 9bb9 c1bd 073c 823d 6ca1 13bc
000003d0: b146 cdbe 551f afbe 17e8 623e 9d18 0bbd
000003e0: c989 803e fb97 4c3e 70f9 e3be f020 bd3e
000003f0: 64a6 6abc f0b7 d33e 8e75 073f 36e9 87be
0.055449147 0.24462128 0.17508285 -0.522703 -0.4654644 0.32392046 -0.520602 0.42633677
0.033178277 0.5270839 0.040699 0.24015789 -0.03954109 -0.45591277 0.22145821 -0.21441188
0.04409739 0.14018244 -0.0016937708 0.18359444 -0.10043447 0.4312752 0.15275876 -0.2764795
0.06287545 -0.09426012 -0.5194895 -0.06588233 0.07116351 0.15007675 0.19712637 0.23690219
0.14698094 -0.33225742 0.18648374 -0.49311388 -0.07448332 -0.524344 0.41148403 0.20428252
0.19389226 0.20260039 -0.54917675 -0.29670396 0.0003309713 0.519664 0.20057236 0.075593255
0.5150928 -0.1866414 0.5851366 0.43307307 -0.09928441 0.10441637 0.008971342 -0.2899213
-0.2173065 0.4020507 -0.01764808 -0.32724357 -0.3055569 0.12790081 0.347729 0.06625283
0.0010798203 -0.56230867 0.04219612 0.017177485 -0.27858278 -0.0010095541 0.06729138 0.45638475
-0.38477916 0.30689207 -0.22896326 -0.21603717 0.398373 -0.57408255 0.3613809 0.10080899
-0.23278266 0.52441615 0.14490859 0.044025052 0.50035584 -0.0756979 -0.3240675 0.14046942
0.17719679 0.439826 0.07045986 -0.083713494 -0.2575527 -0.45827445 0.56354964 -0.25682354
0.23580773 -0.18049823 -0.22908282 -0.37259242 -0.0022206458 0.24635448 -0.1669179 -0.06283313
0.25013658 -0.57164997 0.06035987 0.14333074 0.14422241 0.009085035 -0.06435394 0.17857705
0.33985865 -0.5976581 -0.08506586 0.38451034 0.225167 0.048363473 -0.48149863 0.16613412
0.15279897 0.054365292 0.12341193 -0.18143387 0.44758657 -0.1846773 -0.036629714 0.1918742
-0.09970744 0.2616153 0.152263 0.12744482 -0.05915617 0.0842983 0.35357258 -0.18159257
0.18677312 -0.44482931 -0.5340764 0.06309561 -0.3736228 -0.32534343 0.1454822 -0.23347823
-0.08871749 0.14075923 0.34835866 0.43119803 -0.49322283 0.06378186 0.18694147 -0.36772257
0.57417506 -0.13922095 -0.032797508 -0.2615658 0.017224269 0.07470353 -0.42952147 -0.31029367
0.007482943 0.45109764 0.09028316 -0.073916696 0.4835889 -0.10826951 0.21647438 -0.1092081
-0.2621871 -0.07037304 -0.005088507 -0.36668956 -0.1453405 0.31813878 0.21925673 -0.38528827
-0.5236346 0.51690596 0.21987046 0.21889143 0.31775853 -0.57523125 0.41395733 0.04548783
0.17586146 0.1451733 0.36471945 0.043039266 -0.36573693 0.17751558 -0.30624524 -0.46362534
0.27282003 -0.31675175 0.45762473 0.025368353 -0.36240858 0.39858747 -0.31448478 -0.45099825
0.30826068 0.3421523 -0.44721413 0.3597037 0.0065957694 -0.06148076 0.030634612 0.47884345
-0.010508253 0.09225192 -0.22559786 0.5717533 -0.099814385 0.1551948 0.1129599 0.42658785
0.61825675 0.17513674 -0.09162888 -0.1829172 -0.5851766 0.6789724 -0.06243309 0.5076504
-0.09570688 -0.6367116 0.13298234 -0.24648422 -0.512967 0.2108689 0.009353176 -0.3292388
-0.30559218 0.16430035 0.37367034 -0.3909155 0.03001167 -0.022623712 -0.07534605 0.10721571
-0.03193175 -0.094592296 0.063591056 -0.009010654 -0.40092996 -0.34203592 0.22158848 -0.03395902
0.25105122 0.19979851 -0.44526243 0.36939192 -0.014321897 0.4135127 0.5291375 -0.26545113

fc_value.bias f4 [11]
00000000: e255 78be 93a9 9abd 92a5 773e 7dca 57be
00000010: ff05 a03e 344c c6bc cfab 9b3e b449 873e
00000020: 1c78 adbe e82c a4be 3091 bcbe
-0.24251512 -0.07551875 0.24184254 -0.21073337 0.31254575 -0.024206258 0.30404517 0.2642342
-0.338807 -0.3206551 -0.3682952

fc_adv.weight f4 [13, 29]
00000000: 189e 8bbe 9165 2b3e 221e 353c 9cb2 023f
00000010: 3f47 f3ba 78e9 c63e 3f3a ebbe beff 213c
00000020: 3360 97bd 2e06 b0be 4e28 8a3e 56c2 f03d
00000030: c427 0fbf cc86 143d 3e12 70bd 39ea 2abf
00000040: b571 7bbe 5491 cfbd 6e0d 61be 08b7 bfbd
00000050: 03c4 423e 8443 24bd 367a 1bbe 738a 333e
00000060: 1c4e 0a3f 6139 19be a614 89be 6e7a 4a3e
00000070: a98a 463e e6f3 c3be d912 f03e 0ae4 d63e
00000080: 1f35 b63e 1e11 033f 2a5a e43e ed3d 153e
00000090: ecc0 8dbe 90ce f6be 82f1 cfbe 958e 123f
000000a0: ecb6 ffbd 92a5 d0bd 7b95 e0bc 5934 96be
000000b0: f01a 33bf c324 a1bd 63a7 2f3e 3d5d abbd
000000c0: 3060 fbbe 0794 40be 1e66 6bbe 82f7 1e3d
000000d0: 87a2 0a3d 32cf f63e e2c9 a1be 1878 93be
000000e0: 884c 15be f6a0 fdbd 0ac9 2dbe e6bb 10bf
000000f0: c7f8 57bd 392a 633d 80b8 3a3b 290d 26be
00000100: 777f b13e a6fe 1dbe df6a 9a3e 9e24 32be
00000110: ec5a 9ebe 0d3f ff3c e965 173f 8302 3cbe
00000120: 12e1 393e ac0c 1c3f b3c3 95be e6da 91be
00000130: a646 4abe 293c e63d 0730 063f 2901 2d3e
00000140: bd13 c33e d5b8 2e3d f747 80bd bcd0 e33e
00000150: 5a8b 86be 3462 02be d1a8 87be fb2c 043f
00000160: 7933 593e f7a1 da3d 40ee 00be f2a6 fc3e
00000170: 45c4 e1bd aefc 17bf d70f 403d 268c 5ebc
00000180: 6738 cdbe 17f2 bbbe d8f2 1c3f b312 acbc
00000190: 449a 1e3e 8ea2 a4bd 7286 b0be 999e d7be
000001a0: ba03 b83e 075f 7bbe 7d6c bdbe c8ad 7f3e
000001b0: c201 debe 6c91 0d3d ab34 ba3d 142a c9be
000001c0: 4264 a7be 4d1c 313d e9e2 073f ee20 79bc
000001d0: 1b31 86be dff1 a63d 2a6d b5bd fcfc 923e
000001e0: 1184 bfbd a232 b13e 580b 99bc 7c2d 1ebd
000001f0: 1e4d 97be 631e c4be 3b81 993e e527 4a3e
00000200: 7679 f6be 5221 f03d 83c4 05bf eeb8 97be
00000210: 3470 30be bbbf c83d 0042 a5be c5a7 10be
00000220: 2514 19bd 79d9 673e 675f 8ebe b373 5dbe
00000230: fc68 bd3e 931c 8ebe 2775 623e 0473 bcbb
00000240: 539c 463e 5974 863e 2af4 65bb 259f 4f3e
00000250: 5d99 1cbc 364b 223f 6837 2f3f 6f7a 2c3e
00000260: 1641 783d 0772 9a3d 04d4 b4be c07e 7bbe
00000270: 6ab6 64be daee 92bd 65ad a7be e29a 003e
00000280: a245 783e b050 db3d b355 cabd 0b1a 433e
00000290: cc13 08be 278e ef3e 4edd 023f f4d6 0d3f
000002a0: a68f 65be d77a 6e3e 3119 b6be 00c6 243e
000002b0: 9553 e33c 052b 63be 720b 763d 84cb 943e
000002c0: 03a2 afbe 43fa 1d3e 6052 0f3e c42c b2be
000002d0: e283 dcbe 946e f4bd f57b 783e ecb8 1bbe
000002e0: 7ad3 05bf e0e2 0a3f f896 b0bd cf7d 4b3c
000002f0: 0474 e5be c2da 2cbe e810 50be a24d 1e3f
00000300: c14b 84be f3e1 083e 772f 8dbe 1c6e afbe
00000310: 6cb3 853d e2a4 623d 4e1a 10bf 7d4e 9f3b
00000320: bfdc 503e c026 183f e6e0 953d c25b 1cbf
00000330: 7c53 8a3c 6590 d33e 7f80 323e c96d 923d
00000340: daa3 573d 0930 b03e 3e81 6f3e 75fb a93e
00000350: 2fc2 e03e 801b 88bd cec6 8abe 463f 673e
00000360: f1a1 55be 464e 073f 1451 a7bd d162 1f3f
00000370: 4c99 a2be 95b4 0cbd b2e9 d23d 65ed 65be
00000380: 3320 19be 9be8 b8be 6518 1d3e f540 e53e
00000390: 18a6 5d3e 2b18 0f3e 2e73 ffbe 28e5 4f3d
000003a0: cb6b 08be b8f2 7c3e 3d4a 433d a7b2 a33d
000003b0: 99f4 09be 4651 d13e 0ebf 7f3d 28e6 953e
000003c0: 686f a3be 32ff e2be 6fc6 403e 6eb5 ce3c
000003d0: 2958 14bf 0a0f 5dbc bbd8 13be f7b7 35bf
000003e0: 25b8 fabd d0bd ad3c d046 9cbd c365 0cbf
000003f0: 97e7 58be 7b26 6abe f01d 143d c1d7 123e
-0.27269053 0.16737963 0.0110545475 0.51053786 -0.0018560662 0.38849998 -0.45942876 0.009887634
-0.073913954 -0.34379715 0.26983875 0.11755817 -0.5592005 0.036261365 -0.058611147 -0.66763645
-0.24555095 -0.10135141 -0.2197778 -0.09361082 0.19020085 -0.04010345 -0.15183339 0.17533283
0.54025435 -0.14963295 -0.26773566 0.19773266 0.19388832 -0.38272017 0.4688938 0.41970855
0.35587403 0.51197994 0.4460004 0.14574404 -0.2768625 -0.4820447 -0.40613943 0.5724881
-0.124860615 -0.1018783 -0.027415028 -0.29336813 -0.6996298 -0.0786834 0.17153697 -0.08367393
-0.49096823 -0.18806468 -0.22988173 0.03881026 0.033846404 0.48204952 -0.31599337 -0.28802562
-0.14579976 -0.123842165 -0.16971222 -0.5653671 -0.052727487 0.05546019 0.0028491318 -0.16215958
0.3466756 -0.15429172 0.3015966 -0.17396781 -0.30928743 0.031157995 0.5913988 -0.18360333
0.18152264 0.60956836 -0.2925087 -0.2848732 -0.19753513 0.112419434 0.52417034 0.16894974
0.38100997 0.04265674 -0.06263726 0.4449519 -0.26278192 -0.12732774 -0.26495984 0.51631135
0.21211042 0.106754236 -0.12590885 0.4934612 -0.110237636 -0.59369934 0.046890106 -0.013583219
-0.40082094 -0.36708137 0.6130805 -0.02100501 0.15488535 -0.08038817 -0.34477574 -0.42113188
0.35940343 -0.24547969 -0.36996832 0.24968636 -0.43360716 0.034562513 0.09092077 -0.39289916
-0.32693678 0.04323988 0.5308061 -0.015205605 -0.2620934 0.08151602 -0.08858712 0.28708637
-0.093513615 0.34608942 -0.018682167 -0.038617596 -0.29551023 -0.38304433 0.29981408 0.19741781
-0.48139542 0.11725105 -0.5225298 -0.29633278 -0.17230302 0.09802195 -0.32276917 -0.14126499
-0.037372727 0.22641553 -0.2780716 -0.21626167 0.3699416 -0.27756175 0.22115003 -0.0057510156
0.1939557 0.2626064 -0.003508816 0.20275553 -0.009558049 0.6339601 0.6844392 0.1684358
0.060608946 0.0754128 -0.35318005 -0.2456007 -0.2233521 -0.071744636 -0.32749477 0.12559083
0.24245313 0.10708749 -0.09879627 0.19052903 -0.13288802 0.4678814 0.51118934 0.5540612
-0.22418079 0.23289047 -0.35566095 0.16091156 0.027749816 -0.2218438 0.06006951 0.2906152
-0.34303293 0.15427499 0.13996267 -0.34799778 -0.4306937 -0.119351536 0.24266036 -0.15207261
-0.5227581 0.54252434 -0.08622545 0.012420132 -0.44815075 -0.16880324 -0.20318949 0.6183721
-0.25839046 0.13367443 -0.27575275 -0.34263694 0.06528363 0.055333026 -0.5629014 0.0048616515
0.20396708 0.5943413 0.073182866 -0.6107751 0.016885512 0.41321102 0.1743183 0.07149846
0.052646495 0.34411648 0.23389146 0.3319966 0.4389815 -0.0664587 -0.271048 0.2258273
-0.20862557 0.5285381 -0.08169761 0.62260157 -0.3175758 -0.034351904 0.1029848 -0.2245384
-0.1495369 -0.36114964 0.15341337 0.4477612 0.21645391 0.13974063 -0.49892563 0.05075565
-0.1332237 0.24701965 0.04767822 0.079930596 -0.13472213 0.4088232 0.062438063 0.29277158
-0.31920934 -0.44335324 0.18825696 0.025232997 -0.5794702 -0.013492355 -0.14438145 -0.70983833
-0.12242154 0.021208674 -0.07630694 -0.54842776 -0.21182095 -0.22866242 0.036161363 0.14340116

fc_adv.bias f4 [13]
00000000: d96b babb c3ae c73c 6a42 9bbd b088 a53b
00000010: 3849 b23d 2e35 dbba b90b 9bbd b904 3dbe
00000020: 74b9 d33d 0721 c3bd 9c5c 463e f4ba 743e
00000030: cc18 98bb
-0.005689126 0.024375325 -0.07581027 0.005051695 0.087053716 -0.0016724223 -0.07570595 -0.18458833
0.10338107 -0.09527784 0.19371265 0.23899442 -0.004641628

value.weight f4 [1, 11]
00000000: fbc7 13bf b6c4 43bf 5437 643f f631 29bf
00000010: a6a8 873f d2a4 35bf 5d6b fb3e 7ae8 033f
00000020: a908 80bf 32f5 99bf 6418 20bf
-0.5772702 -0.7647203 0.89146924 -0.6609186 1.0598342 -0.7095462 0.4910535 0.51526606
-1.0002643 -1.2027953 -0.6253722

adv.weight f4 [5, 13]
00000000: a9fb b73e 6154 0c3d 8c8b b03e f99b 033f
00000010: 32c8 993d 2067 a6be a2bc e33e 6b13 30bf
00000020: 5298 ad3e ac1d 18bf 7ec3 febc d074 fbbd
00000030: 259a 8dbe fb66 75bf 013c eabe 5a1d 2a3f
00000040: 07c8 8bbf 8c37 8bbe a5d5 66bf e2ba 22bf
00000050: 826a 4d3f 045e a4be fa9d 54bf 8199 003f
00000060: 5d6c de3e 96d9 343f d767 40bf a5b2 5fbf
00000070: 7550 283f 032a 4f3f 39ac 25be 5bec c7bd
00000080: 09c6 373f 77bb 59bf cf32 3fbf c7a6 563f
00000090: 862a 5fbf a0ac 5b3f 81e2 263f f3b5 c83e
000000a0: 9589 553f 365e 43bf a794 4b3f 0b0e 553f
000000b0: 76d6 44bf 2e0d 603f 5c35 49bf f8c6 e63e
000000c0: fb41 d43d d1ec 6c3f 3183 5bbf 2320 4abd
000000d0: 1086 4b3f 1636 6f3f aa41 8abe 6cc6 1ebe
000000e0: 358c 6d3f 1273 2e3f 4d48 63bf 67be 193e
000000f0: 635e fc3e efda 013f 76eb 073f f33f 7a3e
00000100: 656d 76bf
0.3593419 0.034260157 0.34481466 0.5140987 0.07508887 -0.32500553 0.44479853 -0.6877963
0.33905274 -0.59420276 -0.031099077 -0.122781396 -0.27656665 -0.9586026 -0.45748904 0.66451037
-1.0920419 -0.27190816 -0.90169746 -0.6356641 0.80240643 -0.32102978 -0.83053553 0.5023423
0.4344205 0.7064451 -0.7515845 -0.87381965 0.6574777 0.8092348 -0.16178979 -0.09761878
0.7178655 -0.85051674 -0.746869 0.8384823 -0.8717426 0.8581028 0.6518937 0.39201316
0.8341306 -0.7631563 0.795237 0.8322455 -0.7688974 0.8752011 -0.78597045 0.45073676
0.10364147 0.92548853 -0.8574706 -0.049347054 0.7950144 0.93441904 -0.27003223 -0.1550538
0.92792064 0.68144333 -0.887822 0.15014039 0.4929076 0.5072469 0.5309366 0.24438457
-0.9626067

adv.bias f4 [5]
00000000: 3bda 3dbe 4694 c03d fb46 05be c080 283e
00000010: 163f d33c
-0.1854028 0.09403281 -0.13015358 0.16455364 0.025786918

exp_avg f4 [43, 37]
00000000: 0400 0000 96ac b2bb 820d 09be dc16 a73c
00000010: 635c bb3d 0000 0000 98c4 51bd 45f9 ec3c
00000020: 9461 0ebd 6fbf 4a3b 0000 0000 6d2c 083d
00000030: 6608 4dbd abee eabc b8d0 833d 0000 0000
00000040: 0bc9 5abd 5789 c3bc a57c cabc 4e81 8a3d
00000050: 0000 0000 bdbf 8d3c 6f64 fa3d 9f9c 3a3d
00000060: a058 0abe 0045 713d 0000 0000 dfb8 360b
00000070: 215f f6b9 9826 17bd 11c3 97be 6cc2 88bd
00000080: 7d4c 7fbd e1ef 96bd 6f7a f03d c3db 57bd
00000090: f387 373e 0400 0080 4e92 32bc 6b9e 33bd
000000a0: ad99 fdba a19f a1bd 0000 0000 3e12 913d
000000b0: 7a68 53bd 6ea2 3b3d bf02 cb3b 0000 0000
000000c0: 7e69 0e3d 29d5 85bc 4f7d 43be 45a0 bdbd
000000d0: 0000 0000 9b28 103c be5e 8ebd 0794 d6bb
000000e0: 55d5 b13c 0000 0000 e2f8 5fbe 88e0 573d
000000f0: 3a59 803c 3d93 c5bc 1870 393c 0000 0000
00000100: b128 430a 1c75 97ba 6866 16bc 46c1 25be
00000110: fda7 9d3d e9c5 c1bd 313a 04bc a819 4dbd
00000120: c812 803d 1e7b 643d 0400 0080 a0b9 e2ba
00000130: 4515 103e dfb5 c2bd 9683 5a3e 0000 0000
00000140: 67df e43d dadd a9bd 3f68 a43d 7790 a239
00000150: 0000 0000 1e58 c43b 0a57 603d d7e1 123e
00000160: d300 433e 0000 0000 4069 a0bc f3d5 b73c
00000170: 460a 523d 74a2 ab3d 0000 0000 71b4 9b3d
00000180: c1ff a0bc 3ef2 583d c8ca b8bd 6744 68bd
00000190: 0000 0000 e8c2 3d8a 6a0b 4d3b 1378 fb3d
000001a0: 6d33 b33e fb76 1bbe f3d5 943d 9f61 163e
000001b0: 047f bb3c 1218 f23c 34c3 05bd 0400 0000
000001c0: 059f 183c 88b9 163c 9a71 593d ba70 c8bd
000001d0: 0000 0000 4e8c b8bd f806 b73d e765 27bd
000001e0: b05b adbd 0000 0000 69b9 12bd 816c 623c
000001f0: 5259 08bc 305f c1bd 0000 0000 6263 3e3d
00000200: 97c8 a83d dc5c e23c 118b d7bd 0000 0000
00000210: a0ee c03d 2811 a8bb 104f babd 3c52 e03c
00000220: a716 4b3c 0000 0000 3bc0 2b0c c871 0f3a
00000230: 911d ae3c a643 6abc c601 44bc fc34 be3d
00000240: fef7 3c3c f10d f8bb 42df 5d3d 5bba 74be
00000250: 0400 0080 bdce 2a3d d382 27bc 67c7 6e3c
00000260: f539 953c 0000 0000 5253 273d 384c 90bc
00000270: 5ff4 46bd 1f86 2d3d 0000 0000 4e8f 2f3d
00000280: ecfe b1bd 4892 913c 6a3b a73d 0000 0000
00000290: dc4e 19bb eee5 cc3c 9332 9bbb 96f5 01bc
000002a0: 0000 0000 7a0b ebbd 6a15 053d 6b0f c3bd
000002b0: abb1 9b3a 370f 34bc 0000 0000 59a1 1d89
000002c0: dd90 edb6 f69c 3f3d a587 263c 04ee 1ebd
000002d0: b7df 3bbb f543 6dbd 40c5 613d d4b8 503d
000002e0: 7c17 69bd 0400 0080 8645 383d b417 123d
000002f0: 107d 28bc 646d 723d 0000 0000 d553 d23b
00000300: 0b2e 2e3b 4221 283d ca2a 3abc 0000 0000
00000310: f0aa 793d 309f 8e3c 5376 ab3d b5c1 463d
00000320: 0000 0000 d4a6 40bd c485 493d e3a6 85bc
00000330: 7837 013d 0000 0000 0c79 753d d8a4 27bd
00000340: 64a6 70bc 11bb 153c 7c55 2cbd 0000 0000
00000350: 74d5 7e8b fba1 b43a 882c 3dba 5220 923d
00000360: 8949 78bd d95b 57bc ccac ddb8 ab78 353d
00000370: c3c7 283d 6da7 bd3d 0400 0080 e45d adbc
00000380: 0867 453c 8fcd cabc 08bb 633e 0000 0000
00000390: b9f6 4d3e e11b e5bd 09c4 473c 8b91 743d
000003a0: 0000 0000 7530 17bb 0b99 48bd 7b84 003e
000003b0: 871a 593e 0000 0000 1f52 41bd d3f6 57bd
000003c0: c9a5 7abc 0a60 c43d 0000 0000 5e8a 8ebc
000003d0: e5e9 8c3d da4a b5bc 2040 b9bd a39c 87bd
000003e0: 0000 0000 9b8c 498c a971 4e3a 22b5 afbc
000003f0: a470 613e 7640 16be f816 f83c fc65 123e
6e-45 -0.0054527028 -0.13384059 0.020396642 0.09148481 0.0 -0.051212877 0.028927455
-0.034761027 0.0030936857 0.0 0.033245493 -0.050056837 -0.028678259 0.06436294 0.0
-0.053414386 -0.0238692 -0.024717638 0.06762944 0.0 0.017303342 0.122261874 0.04555952
-0.1351037 0.058903694 0.0 3.5191007e-32 -0.00046991653 -0.03690204 -0.2964101 -0.06677708
-0.062328804 -0.07369972 0.11742102 -0.052699815 0.17922954 -6e-45 -0.01089914 -0.04385225
-0.0019348167 -0.07891775 0.0 0.070835575 -0.05161331 0.045809202 0.0061953957 0.0
0.034768574 -0.016336994 -0.1909077 -0.092590846 0.0 0.008798744 -0.069516644 -0.006548408
0.02170817 0.0 -0.21872285 0.052704364 0.015667547 -0.02411806 0.011318229 0.0
9.396562e-33 -0.0011555287 -0.009179689 -0.16187009 0.07698057 -0.094615765 -0.008070515 -0.050073296
0.06253582 0.055781476 -6e-45 -0.0017297752 0.14070614 -0.095073454 0.21339259 0.0
0.11175423 -0.08294268 0.08027696 0.00031006683 0.0 0.0059919497 0.054770507 0.14343964
0.19043283 0.0 -0.019581437 0.022440886 0.05127933 0.08380595 0.0 0.07602776
-0.019653203 0.052965395 -0.090230525 -0.05670586 0.0 -9.136677e-33 0.003128732 0.12278762
0.35000172 -0.15182106 0.0726737 0.14685677 0.022887714 0.029552493 -0.032656863 6e-45
0.009315257 0.009199508 0.053086855 -0.09787126 0.0 -0.09011136 0.08936876 -0.040868666
-0.08464754 0.0 -0.035821352 0.013819815 -0.008322077 -0.09441984 0.0 0.046481498
0.082413845 0.02763217 -0.10524572 0.0 0.09420514 -0.0051289983 -0.09097111 0.027382962
0.012395537 0.0 1.3231208e-31 0.0005471972 0.021254333 -0.014298355 -0.011963313 0.0928745
0.011533735 -0.0075700213 0.054167993 -0.23899214 -6e-45 0.041701067 -0.010224062 0.014573908
0.018216113 0.0 0.040850945 -0.017614469 -0.048572894 0.042364236 0.0 0.042861275
-0.086912006 0.017769948 0.08165629 0.0 -0.002339295 0.025011983 -0.0047362535 -0.007932087
0.0 -0.11476798 0.032491125 -0.09524425 0.0011878511 -0.010989956 0.0 -1.8974053e-33
-7.0800147e-06 0.04678055 0.010164176 -0.03880121 -0.002866728 -0.057926137 0.055119753 0.050957516
-0.056907162 -6e-45 0.044988178 0.035667136 -0.0102837235 0.059186354 0.0 0.006418685
0.0026577737 0.041047342 -0.011362741 0.0 0.060954034 0.01740989 0.08372178 0.048524577
0.0 -0.0470341 0.049199834 -0.01631493 0.03154704 0.0 0.059929892 -0.04092869
-0.014688108 0.009138838 -0.04207371 0.0 -4.9079205e-32 0.0013781184 -0.00072164135 0.07135071
-0.060617004 -0.013144457 -0.00010570287 0.04430453 0.041206133 0.092604496 -6e-45 -0.021162935
0.01204849 -0.024756221 0.22239316 0.0 0.20113648 -0.11186958 0.0121927345 0.059709113
0.0 -0.0023069654 -0.04897408 0.12550537 0.21201526 0.0 -0.047197457 -0.052725624
-0.015298315 0.095886305 0.0 -0.017399963 0.06880549 -0.022130419 -0.09045434 -0.06621673
0.0 -1.5526789e-31 0.0007875213 -0.021448676 0.22015625 -0.14673027 0.03028439 0.14296716

exp_avg_sq f4 [43, 37]
00000000: 0bd2 9633 6aae 633c 5a61 563c 019b 7f3c
00000010: 4f5f 4e3c 0000 0000 5e4a de3b 6ba6 dd3b
00000020: c456 e93b 7d07 023c 0000 0000 efcd 323c
00000030: c997 2e3c 05ed 133c 1cc6 653c 0000 0000
00000040: f418 163b edb4 5e3b 5839 593b e13f bf3b
00000050: 0000 0000 3e1a 1f3d f727 d03c 62e6 fc3c
00000060: 9a22 023d e56a 173b 0000 0000 1e03 4937
00000070: fc02 3739 a852 953b 012a 0c3d 56cb cf3b
00000080: dac6 ce3b 7302 7d3c 3ed5 a03c d85d 763c
00000090: fc54 a63c c63e 2334 e4e9 6d3c 9f7a 403c
000000a0: c952 763c 8da2 e13c 0000 0000 a68b 0b3c
000000b0: 32b5 6b3c bbfe cf3b 579f 163c 0000 0000
000000c0: 9ba1 c33c 4836 2b3c 334a 5a3c cb87 a53c
000000d0: 0000 0000 565a ea3c be04 973c 40a3 9a3c
000000e0: 2e73 643c 0000 0000 bd66 c33c 1eeb 773c
000000f0: 7dfd ba3c 6ee7 313c 4a84 0e3d 0000 0000
00000100: a7bd 8638 abd1 033a 5c22 6b3d 0bc9 533c
00000110: 4f54 933c 7bf0 dc3b 6b8a 843c 5573 483c
00000120: 3904 ae3c b9d9 1f3e 4e58 7c34 844a 183c
00000130: 2879 cd3b 3f1c 433c e897 b93c 0000 0000
00000140: 040b 353c 93fd d53b 4f09 d43b 4c58 443c
00000150: 0000 0000 794f 613c dad2 123c c2b4 123c
00000160: 1c52 943c 0000 0000 fc6d 483c 6241 063c
00000170: 3f21 f73b f70a 663b 0000 0000 f02f 323c
00000180: 1e82 593c 3524 c13c 2f5f 8b3b 502a bb3b
00000190: 0000 0000 fa47 2b38 8572 b63a e05f b93c
000001a0: a454 af3c f112 083c f570 b53b 5f55 1f3c
000001b0: d54b 533c 755e 4d3c 9a28 ae3d 756a b133
000001c0: 90e9 a23b 3c00 8b3b 2f99 a23b 9cce f33b
000001d0: 0000 0000 e451 4e3c 22e4 153c 0587 273b
000001e0: 7392 223c 0000 0000 1b71 f43b 75c5 533b
000001f0: b976 703b 07ba aa3b 0000 0000 4574 453b
00000200: 6f7b d53b 3979 9f3b 20b0 c33b 0000 0000
00000210: 6325 a83c 9f9c 223c 042e e73b b73f 313b
00000220: 7cdd 0a3c 0000 0000 cef6 e438 e768 873a
00000230: 67e1 183c 72b5 d23b 69b1 093c 416e 9e3b
00000240: 9d37 823c 47a5 f83b 2575 183c eff8 003c
00000250: 6a64 1830 d15e a83b a14a 943b 5ea8 863b
00000260: ec2a 253c 0000 0000 c567 3c3b 2288 b83b
00000270: c2a1 2b3b ba40 a53b 0000 0000 5e8a f73b
00000280: 6be5 6b3b 7135 803b 243d 013c 0000 0000
00000290: 890a b53a a92d 323b 8881 253b 7fa2 403b
000002a0: 0000 0000 7505 273c 3b05 093c 58e6 503b
000002b0: 2403 203c da7f 453b 0000 0000 aa9e 9136
000002c0: a761 5338 6401 0d3c e88e 353c 14f3 873b
000002d0: af4b 1e3b 34cd 673b bc29 6a3b 989a 933b
000002e0: 8096 de3b 786a a430 4478 c03b dffc 403b
000002f0: 6e68 8f3b ce25 203c 0000 0000 8b78 1a3b
00000300: 15c3 a33b f9a9 833b 50a9 113b 0000 0000
00000310: eab9 cb3b b292 763b 2ad9 613b 956a 9c3b
00000320: 0000 0000 8a7a 123c ca32 e13b 28fd b13b
00000330: 2be5 4e3b 0000 0000 d33f 163c 4717 023c
00000340: 3286 ce3b e800 003c b3ac 393d 0000 0000
00000350: f836 5437 74ab 633a cc0b 903c 877f b93c
00000360: 281c 1f3b 231f 473a a166 863a 711f 703b
00000370: 8396 b33b c7a8 123d d96e 8c35 ad06 aa3b
00000380: e471 493b 3221 743b 35ae 103c 0000 0000
00000390: 49a1 263c 160e fa3b faa1 2a3b c93d 8f3b
000003a0: 0000 0000 adca ce3b 4145 6f3b ceac d93b
000003b0: 0d7b fe3b 0000 0000 2986 6c3c 4612 c23b
000003c0: 0f7b 563b 8944 b53b 0000 0000 b592 cf3b
000003d0: db84 cc3b c8ab af3b 6fa5 963b 09c3 533b
000003e0: 0000 0000 828f 5938 9fa5 b639 58a2 853c
000003f0: 3e0f 0f3c f8e8 633b 1b72 3b3b ff78 e53b
7.023126e-08 0.013896564 0.013084734 0.015600921 0.0125959655 0.0 0.0067837676 0.0067642233
0.007120939 0.007936356 0.0 0.010913356 0.010656306 0.009028678 0.014024284 0.0
0.0022903057 0.0033982352 0.0033145752 0.0058364724 0.0 0.038843386 0.025409682 0.030871574
0.03177128 0.0023104486 0.0 1.1981259e-05 0.00017453352 0.0045569725 0.034219746 0.006341378
0.006310326 0.0154424785 0.019632932 0.0150370225 0.020304196 1.5203395e-07 0.014521096 0.011747985
0.015034386 0.02754333 0.0 0.0085171815 0.014386462 0.006347505 0.009193263 0.0
0.02388077 0.010449953 0.013323355 0.020206353 0.0 0.028607529 0.018434878 0.018876672
0.013943477 0.0 0.0238527 0.01513174 0.02282595 0.0108584 0.03479413 0.0
6.4249434e-05 0.00050284964 0.057405815 0.01292635 0.017984537 0.0067425347 0.016179284 0.012234529
0.021242248 0.15610398 2.3501454e-07 0.00929511 0.0062705465 0.01190859 0.022655442 0.0
0.01104999 0.0065304725 0.0064708362 0.011983942 0.0 0.013751858 0.008961404 0.008954229
0.018105559 0.0 0.012233254 0.008194299 0.007541805 0.003510175 0.0 0.010875687
0.013275651 0.023576835 0.00425329 0.005711831 0.0 4.083661e-05 0.0013919628 0.022628725
0.021402664 0.008305297 0.005537147 0.009724944 0.012896498 0.012534727 0.08503838 8.261569e-08
0.0049716905 0.0042419713 0.0049621086 0.0074404012 0.0 0.012592766 0.009148629 0.0025562656
0.0099226115 0.0 0.0074597723 0.0032313738 0.0036691858 0.0052101645 0.0 0.0030129116
0.0065149586 0.004866746 0.0059719235 0.0 0.02052564 0.009925037 0.007055046 0.0027046034
0.008475658 0.0 0.00010917858 0.0010330946 0.009331084 0.0064303214 0.008404114 0.0048349206
0.01589566 0.007588062 0.009305273 0.00787185 5.5439975e-10 0.005138256 0.004525498 0.0041094264
0.010081034 0.0 0.0028748375 0.0056314627 0.0026188944 0.0050431164 0.0 0.0075543365
0.0035994898 0.0039126207 0.007888112 0.0 0.0013812344 0.002718786 0.0025254209 0.002939373
0.0 0.010194172 0.008363063 0.0031875577 0.009766374 0.003013602 0.0 4.3398077e-06
5.0397266e-05 0.008606289 0.011081435 0.00414885 0.0024153998 0.0035370113 0.0035730442 0.004504513
0.0067928433 1.1962831e-09 0.005873712 0.0029447598 0.0043764627 0.009774638 0.0 0.0023570384
0.004997621 0.004018065 0.0022226162 0.0 0.006217231 0.0037624058 0.0034461715 0.0047734478
0.0 0.008940348 0.0068725096 0.00543179 0.00315697 0.0 0.00917049 0.00794012
0.0063026184 0.007812716 0.045330714 0.0 1.2648983e-05 0.00086849113 0.01758375 0.022643818
0.0024278257 0.00075958873 0.0010253974 0.0036639834 0.005480589 0.03580549 1.0463074e-06 0.005188784
0.003073805 0.0037251231 0.008830597 0.0 0.010170289 0.0076310737 0.0026036487 0.004371379
0.0 0.006310782 0.0036509784 0.0066429144 0.0077661336 0.0 0.014436283 0.0059225885
0.0032727157 0.0055318517 0.0 0.0063346275 0.0062414235 0.005361054 0.004597358 0.0032312295
0.0 5.1870484e-05 0.00034837142 0.016312763 0.008731661 0.0034776311 0.0028601948 0.0070029492

exp_avg f4 [43]
00000000: 4f3c a7bd 9625 033e 56b2 67bd e29b 27bd
00000010: 9573 a03d 3084 ffbc 932a 67bc 7411 17be
00000020: 5956 a33d b5e5 ebbc 2bd7 a53b b422 893c
00000030: 2afb 003d 3b8e 22bc eaf8 efbc 0824 3c3d
00000040: ac60 4b3d ae52 ba3d 3dc2 b73c 12d2 f1bb
00000050: 5101 0f3d ad3c 75be 9d62 89be 99dd 1bbd
00000060: 74d8 6a3d 01d3 c23c 4986 ab3b 0f60 3abd
00000070: f626 e5bc 89b7 bc3d 1cdb 733d bda0 34bd
00000080: 4120 e2bd cdff 02bd 0bd9 00bc b681 5b3e
00000090: 8d4c d5bd 8e53 7a3d 2f90 ec3c 1bc1 443d
000000a0: d21e d53d f1ef 8cbd 177c d23d
-0.081658 0.12807307 -0.05656656 -0.040920146 0.078345455 -0.031190962 -0.014109272 -0.14752752
0.07975454 -0.028796056 0.0050610504 0.01674018 0.03148953 -0.009921606 -0.029293496 0.0459328
0.04965274 0.09097801 0.022431487 -0.0073797787 0.034913365 -0.23948927 -0.26833048 -0.03805313
0.057335332 0.023782255 0.005234514 -0.045501765 -0.02797268 0.09214694 0.05953513 -0.044098604
-0.11041308 -0.031982232 -0.007864247 0.214362 -0.104149915 0.06111484 0.028877346 0.048035722
0.10406269 -0.06881703 0.102775745

exp_avg_sq f4 [43]
00000000: 1d03 613c 3feb 073c 2a90 f93b 3e9b da3b
00000010: b991 fe3b 318f 5e3b 7f9b 0d3b 622b 843c
00000020: 02d5 823c 93c2 ce3c b683 843b 5414 293c
00000030: 2fe2 c53c da73 9e3b 7d6c 063c 13ba 903b
00000040: a28b eb3b 2b54 5e3c f021 663c f95d ca3b
00000050: 3559 953b 5d3c cc3c dabc 063d e168 723c
00000060: b06a ab3b 80f4 183c 5a1f 393c d7d6 ba3c
00000070: f598 a33c dc5d a13c ea93 1c3c 4167 0e3c
00000080: b4d4 9e3b de7e f83b 4267 813a dead b43c
00000090: 9706 fe3b 4bfe f23b 051e cc3b b2cf 893c
000000a0: 1fae 4b3c 0418 2c3c 6944 1f3c
0.013733652 0.008295833 0.0076160626 0.0066713383 0.0077688363 0.003395986 0.0021607575 0.016133968
0.01597071 0.025239265 0.0040440215 0.010319788 0.024155704 0.004835588 0.008204577 0.004416713
0.0071882764 0.013569872 0.014046177 0.006175753 0.0045577534 0.024931127 0.032894947 0.014795513
0.005231224 0.009335637 0.011298979 0.022807522 0.019970397 0.019698076 0.00955675 0.00869161
0.0048471335 0.007583483 0.0009872692 0.022055563 0.0077522504 0.007415568 0.0062291645 0.01682267
0.01243165 0.010503773 0.0097209

exp_avg f4 [29, 43]
00000000: 1d21 81bc c073 18bb 8879 fbbb ab26 d63d
00000010: 9a96 263d a2df c9bc 5b39 d13c 297b b13c
00000020: 1fe7 35bb a979 0b3d 9958 483d 1849 833b
00000030: 0823 413d 3377 5abc 0530 c43c 1692 ed3c
00000040: ae25 c33d 874e a13c 9443 b0bc 24dc 043c
00000050: edc3 4e3d fde6 e6bc 9cfc e8ba e10b a53b
00000060: 8bfd 5a3d 4616 24bd 88e0 553d 449b f2ba
00000070: 9eaf 183d 4e81 0fbd b9e8 ad3b d89f 0fbd
00000080: f076 4a3d 9508 5a3d 9437 aebc 8dff 683d
00000090: f7a8 6c3d a5a7 85bc fe8a c0bd 107f 31bc
000000a0: 0511 5abd 8417 e93d 38de 623d 8206 b7bc
000000b0: 8960 edbc 514c 823d 239e 8e3d c2e3 03bd
000000c0: 5a3f 953c 2373 4e3d e6f6 123d 0bc6 7bbd
000000d0: 6456 273c 0a5f 67bd 470c f1bc 60b8 7fbd
000000e0: 4f99 62bc 769d 96bc 780f 00bd 9a77 c83c
000000f0: c2ec ba3c 24c2 bdba abec 313a 8a34 073c
00000100: 86a1 863c 8f55 af3c f107 9f3c d67f 2ebd
00000110: dbea 0b3b 0b73 bebb 5ddf 5cbc e4b6 153d
00000120: 88a9 d339 1e7c cb3c f6ed c8bc 195c cc3c
00000130: 5e44 d7bb 8f33 b93c 48c8 4f3c b34f 9a3d
00000140: 0779 0dbd 3d99 2ebd ebd8 68bc 1363 35bd
00000150: 5c10 143b f8aa 3a3d 078a 0f3d 13b6 d7bc
00000160: e95f 8abb 70da 2db9 f965 1d3b 14d8 033c
00000170: 1879 343c cb99 0c3d cb91 7bbb 23b1 cfbc
00000180: 7ee1 0d3d 8016 65bc 4789 b0bc 1c5c 233c
00000190: 8acf 56bc aeb0 19bd 61fd 67bc 10b7 d3ba
000001a0: 3dec acbc 661b bf3b 91c6 34bc d3d2 f03c
000001b0: 0829 a43c 6218 143b 91f9 55bb ed4f 7dbb
000001c0: a098 8dbb 6237 5e3c 3fbe a23c a63b 5bbc
000001d0: 60d2 1bbc bc37 45bb eb88 463c 6cb4 70bc
000001e0: 11e2 bdbb df48 80bc 82fb eebc a841 bbbc
000001f0: bb99 f5bb c855 87ba fb3e 093b e94d 6fbd
00000200: 054b 8cbc 0a15 2abd 9168 063d 4b27 21bc
00000210: 1d91 0dbd b647 c93c 5362 edbc e87b 7dbd
00000220: 12a3 5ebd aeda 143c 3a94 2f3d c84b 99bd
00000230: 5113 14bb e2be 1dbd 48dc 63bd 9516 233d
00000240: 308f 393d d691 8d3b 0960 ac3c 0967 103d
00000250: 52da e0bb 1c7e 4ebc dfbd c83b fd3d 3d3c
00000260: 40aa 22bd fe55 c83c 6c89 a93b eeec 873d
00000270: 2d42 ef3c d171 3dbd a306 3dbc 3d8d 0f3d
00000280: af94 43bd e48f 35bd 4cf5 c23c 54fe 473b
00000290: 72af 49bc ada5 543b 73ba c23c 6e8a 383d
000002a0: 342c 0cbb c86a 61bc 332d 3d3d 1576 d03c
000002b0: 74ee 54bd c85d 9b3c 932c 933d 516a 593d
000002c0: 72dc 51bb 1e34 9d3b 3026 1bbd 3bf7 d83c
000002d0: a5e5 8ebc edd2 4f3d f245 edbd 7e5e 33bd
000002e0: c080 4dbd 137e 09bc 325b 1bbb a22a b23c
000002f0: 9ac7 713d 03b7 3c3d b10b 503c 85e7 98bc
00000300: 7556 06bd 7fc0 c0bb 774c 6c3c d0dd 453b
00000310: 58de 3a3d 0787 c7bc 2412 53bc cb7b ba3c
00000320: 8d8a 013d 1470 893b e83e edbb ad8f 74bd
00000330: 210a 223c 78c9 04bd 6e19 7c3c 3d1e f33c
00000340: 9ada b43c eaa4 3fbd 0004 15bd 0012 763c
00000350: f329 04bd 6ea0 30bc df2f 813c ec0d e83a
00000360: 6508 bf3b 4aaf bc3d c4e4 053d c82d 4a3b
00000370: 8d64 8bbc 2225 a1bd f110 543c 8695 95bb
00000380: eb9d 5b3d ac2e 93bd bda0 12bd ed78 d6bc
00000390: c98f bcb9 bb64 c13c 1eb4 793d 5810 273d
000003a0: cfc3 a03d 2839 45bc 51a8 5f3d 1a2b dbbc
000003b0: b1fa 21bc 4b99 053d 69c3 1fbc 2098 d83d
000003c0: 6d5d 2f3b 9b96 b33d 2617 993d 97a9 b9bb
000003d0: c3c7 f1ba 273e db3b 0904 93bd d057 7a3d
000003e0: de96 6abd ec25 fd3c 7952 573d fe4c 84bc
000003f0: 8235 37bd 7168 52bb 58ef 893c 206a 85bc
-0.01576286 -0.0023262352 -0.0076743998 0.10456594 0.04067097 -0.02464277 0.025540045 0.021665173
-0.0027756167 0.03405157 0.04891262 0.004006516 0.04715255 -0.013334083 0.023948679 0.029000323
0.09528671 0.019690765 -0.021516599 0.008109126 0.050479818 -0.028186316 -0.0017775479 0.0050368165
0.053464454 -0.040060304 0.052216083 -0.0018509408 0.037276857 -0.035035424 0.0053072837 -0.03506455
0.049429834 0.05323084 -0.021266736 0.056884337 0.057778325 -0.01631529 -0.09401511 -0.010833517
-0.053238887 0.113814384 0.055387706 -0.02234197 -0.028976696 0.063622124 0.06963756 -0.03219963
0.018218685 0.05040277 0.035879992 -0.061468165 0.010213468 -0.05648712 -0.0294248 -0.062431693
-0.013830497 -0.01838563 -0.031264752 0.024471093 0.022817973 -0.0014477414 0.00067872804 0.008252272
0.016434442 0.021403102 0.019412966 -0.042602383 0.0021349702 -0.005812054 -0.013480988 0.03655137
0.00040371367 0.024839457 -0.024527531 0.02494626 -0.0065694293 0.022607593 0.012682028 0.07534733
-0.03453925 -0.04262661 -0.0142118735 -0.044283938 0.0022592759 0.045573205 0.035043743 -0.026331937
-0.004222859 -0.0001657994 0.002401708 0.0080471225 0.011015199 0.034326356 -0.003838646 -0.02535302
0.034638874 -0.013982415 -0.021549834 0.009970691 -0.013111005 -0.03752201 -0.014159531 -0.0016152579
-0.021108741 0.0058321236 -0.01103367 0.029397404 0.020039096 0.002259754 -0.0032649974 -0.0038652376
-0.004321173 0.013563009 0.019866107 -0.0133809205 -0.0095106065 -0.0030093035 0.012117605 -0.014691453
-0.0057947715 -0.015659748 -0.029172663 -0.022858456 -0.0074951327 -0.0010325247 0.002094208 -0.05842391
-0.017125616 -0.04152397 0.032814566 -0.009836028 -0.03456222 0.024570327 -0.028977549 -0.061885744
-0.054354735 0.00908534 0.04286597 -0.07485157 -0.0022594521 -0.03851212 -0.05563 0.039816458
0.04530257 0.0043203635 0.021041887 0.035254512 -0.0068619633 -0.012603309 0.00612615 0.011550424
-0.039713144 0.024455067 0.0051738527 0.066369876 0.02920636 -0.046251122 -0.011537227 0.035046805
-0.047749218 -0.044326678 0.023798607 0.0030516582 -0.012309896 0.0032447383 0.023770547 0.04505389
-0.0021388652 -0.013758369 0.046185683 0.02544693 -0.05198522 0.018965617 0.07186236 0.053079907
-0.0032022265 0.0047974726 -0.037878215 0.026485076 -0.017443487 0.050738264 -0.11585607 -0.043791287
-0.050171614 -0.008391875 -0.002370548 0.021748845 0.059028246 0.04607297 0.0126981 -0.018665085
-0.032797296 -0.0058823223 0.0144225275 0.0030192025 0.0456222 -0.024356378 -0.012882743 0.022764107
0.031626273 0.004194269 -0.007240165 -0.059707332 0.00989011 -0.032418698 0.015386922 0.029677505
0.022076894 -0.046788134 -0.036380768 0.01501894 -0.03226657 -0.010780437 0.015769897 0.0017704344
0.005829858 0.09213121 0.03268887 0.0030850042 -0.01701572 -0.07868411 0.012943492 -0.0045649437
0.0536174 -0.07186636 -0.035797823 -0.026180709 -0.00035965283 0.023607602 0.06096279 0.04078707
0.078498475 -0.012037553 0.05460388 -0.02675395 -0.00988643 0.032616895 -0.009751179 0.105758905
0.0026758567 0.0876896 0.07475118 -0.0056659686 -0.0018446374 0.0066907587 -0.07178504 0.0611189
-0.057272784 0.030901872 0.052568886 -0.016149994 -0.044728763 -0.003210571 0.01683776 -0.016285956
