model_North.pth (torch_old, 85325 bytes, 26 tensors)

exp_avg_sq f4 [12, 34]
0	0x00000000	0.0
1	0x3af3fda7	0.0018615023
2	0x3904d548	0.00012667954
3	0x3a414d2f	0.0007373867
4	0x38f37ffc	0.00011610982
5	0x00000000	0.0
6	0x00000000	0.0
7	0x00000000	0.0
8	0x00000000	0.0
9	0x00000000	0.0
10	0x00000000	0.0
11	0x3aee5cfa	0.0018185668
12	0x38ecda12	0.00011293976
13	0x3a2f72b6	0.00066928135
14	0x38f3f2c4	0.000116323616
15	0x00000000	0.0
16	0x37471cf1	1.1868063e-05
17	0x370fb534	8.565654e-06
18	0x3af099e8	0.0018356415
19	0x368c8e17	4.1888666e-06
20	0x00000000	0.0
21	0x3b2f8f5c	0.002678833
22	0x3b022124	0.001985618
23	0x3646cd79	2.96239e-06
24	0x3aa44b8c	0.0012534722
25	0x3941de44	0.00018488715
26	0x00000000	0.0
27	0x324390ba	1.1383401e-08
28	0x33bcdc87	8.794546e-08
29	0x38bd4c77	9.026465e-05
30	0x39052572	0.00012697818
31	0x3f61aa84	0.8815081
32	0x37720bec	1.44271e-05
33	0x37b06403	2.1027407e-05
34	0x00000000	0.0
35	0x3acba959	0.001553814
36	0x38da818e	0.000104191815
37	0x3a26f05f	0.00063682155
38	0x38cc6263	9.745804e-05
39	0x00000000	0.0
40	0x00000000	0.0
41	0x00000000	0.0
42	0x00000000	0.0
43	0x00000000	0.0
44	0x00000000	0.0
45	0x3ac6a9cb	0.0015156803
46	0x38c35e16	9.3158495e-05
47	0x3a1737d2	0.0005768511
48	0x38cc57dc	9.743843e-05
49	0x00000000	0.0
50	0x3717425b	9.015751e-06
51	0x36f2b3c9	7.2330918e-06
52	0x3a8caadc	0.0010732072
53	0x36410998	2.8764825e-06
54	0x00000000	0.0
55	0x3ac9c40b	0.0015393508
56	0x3ab2e9c1	0.0013649986
57	0x35f842c3	1.849687e-06
58	0x3a447b7f	0.0007495209
59	0x391f70d8	0.00015205459
60	0x00000000	0.0
61	0x32323c7d	1.0374717e-08
62	0x33a8e003	7.863857e-08
63	0x3875791f	5.8525355e-05
64	0x38a15fdc	7.6949334e-05
65	0x3f3c8110	0.73634434
66	0x3749e6d8	1.2034281e-05
67	0x37993a7a	1.8266252e-05
68	0x00000000	0.0
69	0x3b1aef95	0.0023641337
70	0x39233994	0.00015566341
71	0x3a73dc0e	0.0009302505
72	0x391629f2	0.0001432074
73	0x00000000	0.0
74	0x00000000	0.0
75	0x00000000	0.0
76	0x00000000	0.0
77	0x00000000	0.0
78	0x00000000	0.0
79	0x3b17513a	0.0023089186
80	0x39115cea	0.00013862891
81	0x3a5dc811	0.0008460293
82	0x3915ef5c	0.00014298916
83	0x00000000	0.0
84	0x37687be5	1.3857124e-05
85	0x3732f60d	1.0666915e-05
86	0x3adcd1ed	0.0016847231
87	0x36911d0b	4.324718e-06
88	0x00000000	0.0
89	0x3b1b6de3	0.002371662
90	0x3b11acff	0.0022228358
91	0x364362ee	2.911485e-06
92	0x3a5b3ab2	0.00083629333
93	0x3972d6f1	0.0002315899
94	0x00000000	0.0
95	0x32789896	1.4470194e-08
96	0x33ec3ec7	1.10010255e-07
97	0x38be5360	9.075436e-05
98	0x38e7213f	0.00011021131
99	0x3f8f6f5d	1.120586
100	0x379b0476	1.8479517e-05
101	0x37f263d5	2.8895136e-05
102	0x00000000	0.0
103	0x3a796fb4	0.0009515241
104	0x3881faae	6.197892e-05
105	0x39c29820	0.00037115905
106	0x386f7164	5.7087644e-05
107	0x00000000	0.0
108	0x00000000	0.0
109	0x00000000	0.0
110	0x00000000	0.0
111	0x00000000	0.0
112	0x00000000	0.0
113	0x3a73bfc8	0.0009298292
114	0x3867737c	5.5182245e-05
115	0x39b1380f	0.00033801838
116	0x386f696a	5.7080215e-05
117	0x00000000	0.0
118	0x36bbefbd	5.6009435e-06
119	0x368f518f	4.2712268e-06
120	0x3a318f4a	0.0006773366
121	0x35ebeb9f	1.7577439e-06
122	0x00000000	0.0
123	0x3a85e092	0.0010214022
124	0x3a4c3e1e	0.00077912386
125	0x359a647c	1.1503139e-06
126	0x39d36fbd	0.00040328308
127	0x38c31d0a	9.3037335e-05
128	0x00000000	0.0
129	0x31c3768f	5.6887255e-09
130	0x333b9346	4.3673275e-08
131	0x381b29f2	3.6993944e-05
132	0x38420221	4.6255187e-05
133	0x3ee67cf6	0.45017213
134	0x36f6962f	7.348855e-06
135	0x373e3876	1.1338028e-05
136	0x00000000	0.0
137	0x3b1d23b2	0.0023977575
138	0x3928590d	0.00016054903
139	0x3a7e14c9	0.0009692428
140	0x391d02f9	0.00014973794
141	0x00000000	0.0
142	0x00000000	0.0
143	0x00000000	0.0
144	0x00000000	0.0
145	0x00000000	0.0
146	0x00000000	0.0
147	0x3b195943	0.0023399151
148	0x3916301d	0.00014323038
149	0x3a668773	0.0008793987
150	0x391d0813	0.00014975695
151	0x00000000	0.0
152	0x376b9e9e	1.40440225e-05
153	0x3737ad69	1.0948025e-05
154	0x3ae086f6	0.0017130065
155	0x3694b405	4.4317007e-06
156	0x00000000	0.0
157	0x3b2165cc	0.0024627326
158	0x3b0fbb09	0.002193155
159	0x3647183e	2.9667422e-06
160	0x3a776a5a	0.000943815
161	0x3976a0b3	0.00023520253
162	0x00000000	0.0
163	0x32874833	1.57489e-08
164	0x33ff9b29	1.1902586e-07
165	0x38c287d1	9.275939e-05
166	0x38f1bcf1	0.000115269686
167	0x3f919ae9	1.13754
168	0x379e0bc0	1.884054e-05
169	0x37f3fcd5	2.9085591e-05
170	0x00000000	0.0
171	0x351a7f77	5.7554956e-07
172	0x33bec6c3	8.883719e-08
173	0x35104e74	5.3758345e-07
174	0x33b74f25	8.535998e-08
175	0x00000000	0.0
176	0x00000000	0.0
177	0x00000000	0.0
178	0x00000000	0.0
179	0x00000000	0.0
180	0x00000000	0.0
181	0x350e7cd3	5.3080765e-07
182	0x33b34d2e	8.349376e-08
183	0x34f07ace	4.4792836e-07
184	0x33b8e66c	8.610081e-08
185	0x00000000	0.0
186	0x31803e1f	3.7323526e-09
187	0x320a813d	8.062043e-09
188	0x351f0c4c	5.925001e-07
189	0x312a319f	2.4766462e-09
190	0x00000000	0.0
191	0x3540b9ad	7.179577e-07
192	0x351f41de	5.9327965e-07
193	0x3069841f	8.495266e-10
194	0x34cc79a0	3.8086455e-07
195	0x3370acb7	5.6036438e-08
196	0x00000000	0.0
197	0x2d742f12	1.3880246e-11
198	0x2ee90a68	1.0597462e-10
199	0x331c8b60	3.644834e-08
200	0x331e71cb	3.6890736e-08
201	0x399dd2ef	0.0003010253
202	0x31c1e13c	5.6426455e-09
203	0x31e5d79e	6.68929e-09
204	0x00000000	0.0
205	0x3a6bc4f7	0.00089938886
206	0x38753edd	5.8471098e-05
207	0x39b8f3c6	0.0003527684
208	0x385c2989	5.249077e-05
209	0x00000000	0.0
210	0x00000000	0.0
211	0x00000000	0.0
212	0x00000000	0.0
213	0x00000000	0.0
214	0x00000000	0.0
215	0x3a665177	0.0008785943
216	0x385aa238	5.212633e-05
217	0x39a826cc	0.00032072363
218	0x385b7935	5.232655e-05
219	0x00000000	0.0
220	0x36b3e9b8	5.361824e-06
221	0x3687a193	4.0421232e-06
222	0x3a334e2b	0.0006839956
223	0x35e6076c	1.7138495e-06
224	0x00000000	0.0
225	0x3a83f63c	0.001006789
226	0x3a663300	0.00087814033
227	0x35a053aa	1.1945278e-06
228	0x39f6ce2a	0.0004707438
229	0x38b7eb98	8.770003e-05
230	0x00000000	0.0
231	0x31b54631	5.275773e-09
232	0x332e657f	4.0604842e-08
233	0x381a6679	3.6811896e-05
234	0x384fa934	4.951023e-05
235	0x3ed920b3	0.4240776
236	0x36eb184e	7.006375e-06
237	0x37358389	1.0819066e-05
238	0x00000000	0.0
239	0x3a1f7adb	0.00060836755
240	0x382534a9	3.938811e-05
241	0x39819c2e	0.0002472116
242	0x3817f128	3.62258e-05
243	0x00000000	0.0
244	0x00000000	0.0
245	0x00000000	0.0
246	0x00000000	0.0
247	0x00000000	0.0
248	0x00000000	0.0
249	0x3a1ba237	0.00059369527
250	0x3813b6c2	3.5217738e-05
251	0x396af721	0.00022408042
252	0x3817e7d4	3.6217112e-05
253	0x00000000	0.0
254	0x36766ddf	3.672081e-06
255	0x363b9260	2.7950373e-06

exp_avg f4 [12, 34]
0	0x00000000	0.0
1	0x3c0359ac	0.008016985
2	0x3ca5b6c8	0.020228758
3	0x3c69fa78	0.014280908
4	0xbb1c3a9b	-0.0023838643
5	0x00000000	0.0
6	0x00000000	0.0
7	0x00000000	0.0
8	0x00000000	0.0
9	0x00000000	0.0
10	0x00000000	0.0
11	0x3bac6ffc	0.005262373
12	0x3c9eb938	0.019375429
13	0x3c8b8f4a	0.017036099
14	0xb9bbd3de	-0.00035825273
15	0x00000000	0.0
16	0x3b418371	0.0029527808
17	0x3bf46027	0.0074577513
18	0x3c1df80b	0.009641658
19	0x3b225cc9	0.0024774543
20	0x00000000	0.0
21	0x39148b5e	0.00014166298
22	0x3853cc5d	5.049665e-05
23	0xb91521d4	-0.0001422235
24	0x3913edaa	0.00014107549
25	0x3b8c90a8	0.0042897053
26	0x00000000	0.0
27	0x12ae6acc	1.1007271e-27
28	0x1dc7050a	5.268007e-21
29	0x3c0bf407	0.008542067
30	0x390d5d10	0.00013481476
31	0x3f0811c0	0.53152084
32	0x3b841709	0.0040310663
33	0x3bd8c7ad	0.0066156
34	0x00000000	0.0
35	0xbbedd9fa	-0.007258651
36	0xbc93114e	-0.017952587
37	0xbc4c96f8	-0.012487166
38	0x3b177cfc	0.0023115268
39	0x00000000	0.0
40	0x00000000	0.0
41	0x00000000	0.0
42	0x00000000	0.0
43	0x00000000	0.0
44	0x00000000	0.0
45	0xbb9ad7d1	-0.0047254344
46	0xbc8ccc8a	-0.017187376
47	0xbc76b1e5	-0.015057062
48	0x39fe0c5b	0.0004845586
49	0x00000000	0.0
50	0xbb2ef7d0	-0.0026698
51	0xbbd75a01	-0.0065720086
52	0xbc0c753b	-0.008572872
53	0xbb0c99d5	-0.0021453996
54	0x00000000	0.0
55	0xb9043ad8	-0.00012610422
56	0xb82edd44	-4.1690902e-05
57	0x3904c426	0.00012661572
58	0xb903c6f0	-0.00012567244
59	0xbb7e669e	-0.0038818489
60	0x00000000	0.0
61	0x92a6e2e0	-1.0532002e-27
62	0x9db8bcb8	-4.8899525e-21
63	0xbbf52ca3	-0.0074821278
64	0xb8fcba8a	-0.00012051042
65	0xbef4706f	-0.4774203
66	0xbb724339	-0.0036966337
67	0xbbc6df83	-0.006069125
68	0x00000000	0.0
69	0x3c1908ef	0.009340509
70	0x3cbc9eee	0.023025002
71	0x3c832ccb	0.01601257
72	0xbb39250b	-0.002825084
73	0x00000000	0.0
74	0x00000000	0.0
75	0x00000000	0.0
76	0x00000000	0.0
77	0x00000000	0.0
78	0x00000000	0.0
79	0x3bc8cf15	0.0061282017
80	0x3cb4a9e8	0.022053674
81	0x3c9e104a	0.019294877
82	0xba08c9ce	-0.00052180595
83	0x00000000	0.0
84	0x3b5efe10	0.0034025945
85	0x3c0af40e	0.008481039
86	0x3c3415de	0.010991542
87	0x3b323690	0.0027193166
88	0x00000000	0.0
89	0x3924a37a	0.00015701159
90	0x385fdcae	5.3372867e-05
91	0xb925574c	-0.00015768147
92	0x39241285	0.00015647158
93	0x3ba0f197	0.0049116123
94	0x00000000	0.0
95	0x12c49748	1.2406633e-27
96	0x1ddac62b	5.790902e-21
97	0x3c1cb2c2	0.009564104
98	0x391d2598	0.00014986692
99	0x3f1bde31	0.6088591
100	0x3b99d1eb	0.0046942136
101	0x3bfca597	0.0077101695
102	0x00000000	0.0
103	0x3bbee260	0.005825326
104	0x3c6dd94b	0.014517139
105	0x3c26ad08	0.01017309
106	0xbae5cc6f	-0.001753224
107	0x00000000	0.0
108	0x00000000	0.0
109	0x00000000	0.0
110	0x00000000	0.0
111	0x00000000	0.0
112	0x00000000	0.0
113	0x3b7b5b0b	0.0038353826
114	0x3c63d0dc	0.013904776
115	0x3c47c5a6	0.012193119
116	0xb99c3255	-0.0002979214
117	0x00000000	0.0
118	0x3b0d3a67	0.0021549703
119	0x3baf308b	0.005346363
120	0x3be3567f	0.0069378014
121	0x3ae5f9ad	0.0017545723
122	0x00000000	0.0
123	0x38d637e1	0.000102147234
124	0x3804ad19	3.1632462e-05
125	0xb8d6f74b	-0.00010250377
126	0x38d57867	0.00010179058
127	0x3b4a741b	0.0030891958
128	0x00000000	0.0
129	0x1276636c	7.774646e-28
130	0x1d8af4f0	3.6781555e-21
131	0x3bca9029	0.006181736
132	0x38cd3f79	9.7869844e-05
133	0x3ec44fc4	0.38342106
134	0x3b4096f3	0.0029386848
135	0x3b9e7d60	0.004836723
136	0x00000000	0.0
137	0xbc15c23a	-0.0091405455
138	0xbcb8c16e	-0.022553172
139	0xbc8062e2	-0.015672151
140	0x3b42c6c5	0.0029720527
141	0x00000000	0.0
142	0x00000000	0.0
143	0x00000000	0.0
144	0x00000000	0.0
145	0x00000000	0.0
146	0x00000000	0.0
147	0xbbc2b7dc	-0.005942328
148	0xbcb0d819	-0.021587418
149	0xbc9ae18b	-0.018906375
150	0x3a2d3848	0.0006607813
151	0x00000000	0.0
152	0xbb5c942d	-0.0033657656
153	0xbc06ff5f	-0.008239596
154	0xbc306fdc	-0.010768857
155	0xbb2ffcee	-0.0026853639
156	0x00000000	0.0
157	0xb92788ae	-0.00015977278
158	0xb85db52f	-5.2859246e-05
159	0x3928368c	0.00016042049
160	0xb926f521	-0.00015922311
161	0xbba03767	-0.004889417
162	0x00000000	0.0
163	0x92cd5f1c	-1.2960765e-27
164	0x9de22a37	-5.986535e-21
165	0xbc1b5ef5	-0.009483089
166	0xb920188d	-0.00015267935
167	0xbf19ab5e	-0.6002711
168	0xbb98c979	-0.0046626893
169	0xbbfaceb6	-0.0076540364
170	0x00000000	0.0
171	0xb8c6cbd8	-9.4793446e-05
172	0xb975d823	-0.00023445538
173	0xb92aeccf	-0.00016300681
174	0x38002853	3.0555133e-05
175	0x00000000	0.0
176	0x00000000	0.0
177	0x00000000	0.0
178	0x00000000	0.0
179	0x00000000	0.0
180	0x00000000	0.0
181	0xb8810150	-6.151444e-05
182	0xb96b56ba	-0.00022443655
183	0xb94e564f	-0.00019677843
184	0x36df5f07	6.6569805e-06
185	0x00000000	0.0
186	0xb812890f	-3.493676e-05
187	0xb8b3cf3c	-8.5739855e-05
188	0xb8eae88e	-0.00011201306
189	0xb7eb213d	-2.802966e-05
190	0x00000000	0.0
191	0xb5df59f8	-1.6640979e-06
192	0xb55999da	-8.1062683e-07
193	0x35e09650	1.6733047e-06
194	0xb5de2080	-1.6549748e-06
195	0xb8559d07	-5.09294e-05
196	0x00000000	0.0
197	0x904a6b74	-3.9920255e-29
198	0x9b5efb46	-1.84446e-22
199	0xb8cde889	-9.818475e-05
200	0xb5d0a3f0	-1.554492e-06
201	0xbbccbe5d	-0.006248279
202	0xb84b9a15	-4.854247e-05
203	0xb8a72613	-7.9702724e-05
204	0x00000000	0.0
205	0x3bbcff88	0.0057677664
206	0x3c67dc24	0.014151607
207	0x3c2180bf	0.009857356
208	0xbadada48	-0.0016697133
209	0x00000000	0.0
210	0x00000000	0.0
211	0x00000000	0.0
212	0x00000000	0.0
213	0x00000000	0.0
214	0x00000000	0.0
215	0x3b7861df	0.0037900133
216	0x3c5e2e37	0.013560823
217	0x3c42160f	0.0118460795
218	0xb985624c	-0.00025440974
219	0x00000000	0.0
220	0x3b094074	0.0020942958
221	0x3bab9bd0	0.00523708
222	0x3bde7479	0.006788787
223	0x3ae0c8e7	0.0017149717
224	0x00000000	0.0
225	0x38c8cc5b	9.574807e-05
226	0x380c9968	3.352147e-05
227	0xb8c9a5e0	-9.6153235e-05
228	0x38c80d5f	9.539234e-05
229	0x3b435388	0.0029804427
230	0x00000000	0.0
231	0x126d502a	7.4882824e-28
232	0x1d84f185	3.5189834e-21
233	0x3bc79b4e	0.006091512
234	0x38bf58b4	9.124112e-05
235	0x3ebf0976	0.37311906
236	0x3b3efa91	0.0029141048
237	0x3b9cfa4e	0.004790581
238	0x00000000	0.0
239	0x3b957a36	0.004561688
240	0x3c3863e4	0.0112542845
241	0x3bfee1a5	0.007778364
242	0xbaac851b	-0.0013162227
243	0x00000000	0.0
244	0x00000000	0.0
245	0x00000000	0.0
246	0x00000000	0.0
247	0x00000000	0.0
248	0x00000000	0.0
249	0x3b414db1	0.002949577
250	0x3c30944d	0.010777545
251	0x3c19d68f	0.009389534
252	0xb925f8be	-0.0001582829
253	0x00000000	0.0
254	0x3ad93109	0.00165704
255	0x3b86eedf	0.004117831

exp_avg_sq f4 [1, 12]
0	0x3f0dfc82	0.5546342
1	0x3add9f40	0.0016908422
2	0x3cd95b05	0.02653266
3	0x3db27520	0.08713746
4	0x3cb4cecf	0.02207127
5	0x3c98043d	0.018556708
6	0x3e1c6d6e	0.15276119
7	0x3e9bf3e5	0.30459514
8	0x3ba005b1	0.004883491
9	0x3cb026f4	0.02150295
10	0x3f16027c	0.5859754
11	0x3e81c223	0.25343427

exp_avg f4 [1, 12]
0	0x3edca029	0.43090943
1	0xbbd57386	-0.0065140156
2	0x3e0b1268	0.1358124
3	0x3e3ec2bf	0.18628977
4	0x3d84aef1	0.0647868
5	0x3d1fd247	0.039018895
6	0x3e80edf7	0.25181553
7	0xbe992338	-0.29909682
8	0x3d9f1271	0.07767189
9	0xbd0a375f	-0.033744212
10	0x3ed50c0c	0.41610754
11	0xbe9ba23d	-0.30397215

exp_avg_sq f4 [22, 34]
0	0x00000000	0.0
1	0x3a3f2464	0.00072914944
2	0x38072944	3.222494e-05
3	0x39f8e767	0.00047474654
4	0x38957d37	7.128197e-05
5	0x00000000	0.0
6	0x00000000	0.0
7	0x00000000	0.0
8	0x00000000	0.0
9	0x00000000	0.0
10	0x00000000	0.0
11	0x3a2611c7	0.00063350465
12	0x37f14720	2.8762559e-05
13	0x39e15235	0.00042976593
14	0x3891cc8d	6.952239e-05
15	0x00000000	0.0
16	0x354cc344	7.628007e-07
17	0x360c0b7c	2.086831e-06
18	0x39ea7f2f	0.00044726717
19	0x369e0aaa	4.7100084e-06
20	0x00000000	0.0
21	0x3a0520ef	0.0005078455
22	0x39b961e0	0.00035358872
23	0x350c3f0a	5.22458e-07
24	0x38704c60	5.729159e-05
25	0x38231ce1	3.8889124e-05
26	0x00000000	0.0
27	0x321a15d3	8.968942e-09
28	0x30c4bbba	1.4314232e-09
29	0x373b8bc0	1.1178607e-05
30	0x3739ceb2	1.1074984e-05
31	0x3e8504a3	0.259801
32	0x355022eb	7.753685e-07
33	0x3660090a	3.3383863e-06
34	0x00000000	0.0
35	0x39356a59	0.00017301123
36	0x37b325ef	2.1356127e-05
37	0x39139254	0.00014073524
38	0x38aa18db	8.1108614e-05
39	0x00000000	0.0
40	0x00000000	0.0
41	0x00000000	0.0
42	0x00000000	0.0
43	0x00000000	0.0
44	0x00000000	0.0
45	0x3930b449	0.0001685183
46	0x379efbd0	1.8952327e-05
47	0x39066908	0.00012818363
48	0x38a269dd	7.7444805e-05
49	0x00000000	0.0
50	0x35cddd2f	1.5338063e-06
51	0x35c23cc4	1.4471811e-06
52	0x395f9a47	0.0002132441
53	0x370af382	8.282137e-06
54	0x00000000	0.0
55	0x399c1ab5	0.00029774537
56	0x39921090	0.0002785963
57	0x34cea4e9	3.8490478e-07
58	0x391319c4	0.00014028611
59	0x37a6b996	1.9875162e-05
60	0x00000000	0.0
61	0x2fa1d42c	2.9436487e-10
62	0x310980f6	2.000943e-09
63	0x36f2963a	7.2296507e-06
64	0x36e55cf7	6.8355544e-06
65	0x3dadd93d	0.084887005
66	0x348547b4	2.482535e-07
67	0x356fdc46	8.935498e-07
68	0x00000000	0.0
69	0x3a03b77c	0.0005024595
70	0x34c0e2b1	3.5927727e-07
71	0x387f65dc	6.08916e-05
72	0x37922c75	1.7425258e-05
73	0x00000000	0.0
74	0x00000000	0.0
75	0x00000000	0.0
76	0x00000000	0.0
77	0x00000000	0.0
78	0x00000000	0.0
79	0x3a00ab4c	0.0004908338
80	0x34a21f65	3.0197694e-07
81	0x38634204	5.41825e-05
82	0x3791d1b1	1.7382992e-05
83	0x00000000	0.0
84	0x35e116b7	1.6770417e-06
85	0x32df3af9	2.5987434e-08
86	0x384e9562	4.925335e-05
87	0x35f6afcf	1.8379595e-06
88	0x00000000	0.0
89	0x3704aa7b	7.907506e-06
90	0x373dd96f	1.1315903e-05
91	0x3291a8eb	1.6957037e-08
92	0x398d250a	0.00026921212
93	0x382bec32	4.098955e-05
94	0x00000000	0.0
95	0x2fb85f4b	3.3537115e-10
96	0x2ea4138b	7.461328e-11
97	0x367c87e4	3.7630025e-06
98	0x36bb2781	5.577633e-06
99	0x3e51e6b9	0.2049817
100	0x35446578	7.3163346e-07
101	0x360e35d6	2.1190986e-06
102	0x00000000	0.0
103	0x39daad85	0.00041709482
104	0x389e47ed	7.547424e-05
105	0x389ee288	7.576222e-05
106	0x3869a089	5.570104e-05
107	0x00000000	0.0
108	0x00000000	0.0
109	0x00000000	0.0
110	0x00000000	0.0
111	0x00000000	0.0
112	0x00000000	0.0
113	0x39d27aa3	0.00040145693
114	0x388c0bdd	6.67793e-05
115	0x38a3c044	7.808258e-05
116	0x38669caf	5.4982196e-05
117	0x00000000	0.0
118	0x363dcd48	2.8282684e-06
119	0x368465d0	3.945759e-06
120	0x38b24cb5	8.501989e-05
121	0x3705879e	7.958994e-06
122	0x00000000	0.0
123	0x3a9c19db	0.0011909561
124	0x3aa5b0eb	0.0012641227
125	0x35bb7d33	1.3969023e-06
126	0x39571956	0.00020513436
127	0x380f6d32	3.4195553e-05
128	0x00000000	0.0
129	0x31ddc272	6.4540524e-09
130	0x3281c394	1.5106515e-08
131	0x37eae29e	2.80005e-05
132	0x3805ece5	3.1930296e-05
133	0x3e33ba80	0.17551613
134	0x34cca3fd	3.8117278e-07
135	0x35ec767d	1.7617855e-06
136	0x00000000	0.0
137	0x394569e3	0.0001882683
138	0x3630feb4	2.63743e-06
139	0x39e35bbd	0.00043365164
140	0x390941f5	0.00013089909
141	0x00000000	0.0
142	0x00000000	0.0
143	0x00000000	0.0
144	0x00000000	0.0
145	0x00000000	0.0
146	0x00000000	0.0
147	0x392f14d7	0.00016697064
148	0x36245441	2.4486947e-06
149	0x39ce4378	0.0003934165
150	0x3905cc4d	0.00012759976
151	0x00000000	0.0
152	0x35b004e9	1.3114451e-06
153	0x348e10a3	2.6461666e-07
154	0x3a259849	0.0006316943
155	0x375159d1	1.2478283e-05
156	0x00000000	0.0
157	0x37d9df53	2.597241e-05
158	0x37cd8dc4	2.450392e-05
159	0x337a70e6	5.831034e-08
160	0x3a3019fa	0.0006717738
161	0x37982178	1.8135397e-05
162	0x00000000	0.0
163	0x309c9e77	1.1395532e-09
164	0x32005db3	7.471885e-09
165	0x379c1c2e	1.8609771e-05
166	0x37118292	8.673074e-06
167	0x3ddbdf6a	0.10735972
168	0x3603a132	1.961435e-06
169	0x36d12489	6.2329386e-06
170	0x00000000	0.0
171	0x3a98185b	0.0011603938
172	0x37b39a7e	2.1410404e-05
173	0x39e8ba9f	0.00044389532
174	0x385d772d	5.2801497e-05
175	0x00000000	0.0
176	0x00000000	0.0
177	0x00000000	0.0
178	0x00000000	0.0
179	0x00000000	0.0
180	0x00000000	0.0
181	0x3a88479a	0.0010397315
182	0x37a0fbfb	1.9190824e-05
183	0x39cf03e8	0.00039485027
184	0x385b2065	5.224384e-05
185	0x00000000	0.0
186	0x360248bf	1.9413853e-06
187	0x35a84da9	1.2539577e-06
188	0x39b132af	0.00033797833
189	0x3643801d	2.9131836e-06
190	0x00000000	0.0
191	0x39959db4	0.00028536993
192	0x3983d9f1	0.00025148646
193	0x34a5eb2c	3.0904755e-07
194	0x3861f3b0	5.3871132e-05
195	0x388b2ad0	6.636011e-05
196	0x00000000	0.0
197	0x3260e5db	1.3090779e-08
198	0x31519337	3.0497185e-09
199	0x37321d81	1.0616496e-05
200	0x36e8fd00	6.943592e-06
201	0x3ed3d697	0.41374657
202	0x358c92ec	1.0473573e-06
203	0x3681935f	3.861656e-06
204	0x00000000	0.0
205	0x388bd6e2	6.6680615e-05
206	0x37ed1682	2.8263083e-05
207	0x3900e7eb	0.00012293427
208	0x36d2385c	6.265049e-06
209	0x00000000	0.0
210	0x00000000	0.0
211	0x00000000	0.0
212	0x00000000	0.0
213	0x00000000	0.0
214	0x00000000	0.0
215	0x3878fbe5	5.9362403e-05
216	0x37cf05fa	2.4679106e-05
217	0x38e41a3c	0.00010876774
218	0x36cd217d	6.1133746e-06
219	0x00000000	0.0
220	0x34c2a52c	3.6255494e-07
221	0x35d0b7a8	1.5550659e-06
222	0x395f3eec	0.00021290377
223	0x35828c7a	9.726639e-07
224	0x00000000	0.0
225	0x39fce536	0.0004823596
226	0x3a00850c	0.0004902638
227	0x3519bff5	5.7276276e-07
228	0x36cb220e	6.053836e-06
229	0x369a4d56	4.5985607e-06
230	0x00000000	0.0
231	0x2fe67c98	4.1925285e-10
232	0x31ac4ecb	5.0148166e-09
233	0x3713d039	8.810363e-06
234	0x378b238a	1.658664e-05
235	0x3cfa220a	0.03053381
236	0x35916373	1.0832285e-06
237	0x368425fc	3.9383285e-06
238	0x00000000	0.0
239	0x38d174bc	9.98764e-05
240	0x38ab5dee	8.171411e-05
241	0x38f3a8e9	0.00011618605
242	0x38e8aa16	0.00011094303
243	0x00000000	0.0
244	0x00000000	0.0
245	0x00000000	0.0
246	0x00000000	0.0
247	0x00000000	0.0
248	0x00000000	0.0
249	0x38a8f177	8.0558406e-05
250	0x3897bdce	7.235595e-05
251	0x38f407d3	0.00011636284
252	0x38df287a	0.00010641008
253	0x00000000	0.0
254	0x348573cc	2.4857434e-07
255	0x36a74b8c	4.9857827e-06

exp_avg f4 [22, 34]
0	0x00000000	0.0
1	0x3c72ca63	0.014818761
2	0xbc333c9d	-0.010939744
3	0xbc9f7fd0	-0.019470125
4	0x3c7e8c19	0.015536332
5	0x00000000	0.0
6	0x00000000	0.0
7	0x00000000	0.0
8	0x00000000	0.0
9	0x00000000	0.0
10	0x00000000	0.0
11	0x3c3ecff7	0.011646262
12	0xbc2c8aab	-0.010531108
13	0xbc9cfe6a	-0.019164283
14	0x3c8ba438	0.017046079
15	0x00000000	0.0
16	0x3ac4493a	0.0014975436
17	0xbb82f710	-0.0039967373
18	0xbb88d10f	-0.0041753124
19	0x3bce3dfd	0.0062940107
20	0x00000000	0.0
21	0x38f1b5f5	0.00011525668
22	0xb7b2689b	-2.1267964e-05
23	0xb8f13c08	-0.00011502957
24	0x38f26e38	0.00011559989
25	0x3a467b9f	0.00075715216
26	0x00000000	0.0
27	0x129ac8ec	9.768297e-28
28	0x9d3f527c	-2.5321283e-21
29	0x3bd86e78	0.006604966
30	0x38f7f310	0.00011823152
31	0x3e88fff4	0.26757777
32	0xbaa0406e	-0.0012226233
33	0xbb5cb3b8	-0.0033676457
34	0x00000000	0.0
35	0xba61a98a	-0.0008608332
36	0x3c1edbd5	0.009695967
37	0x3c1aced0	0.009448722
38	0xbca11207	-0.019661916
39	0x00000000	0.0
40	0x00000000	0.0
41	0x00000000	0.0
42	0x00000000	0.0
43	0x00000000	0.0
44	0x00000000	0.0
45	0xba76e3de	-0.000941811
46	0x3c18e25d	0.009331313
47	0x3c209208	0.009800442
48	0xbc9c97e4	-0.019115396
49	0x00000000	0.0
50	0x39b1580f	0.0003382568
51	0x3b697d5d	0.00356277
52	0x3b846626	0.0040404974
53	0xbc011e6d	-0.007880789
54	0x00000000	0.0
55	0x37923160	1.7427548e-05
56	0x379ed974	1.8936327e-05
57	0xb7942d4a	-1.7664064e-05
58	0x3790630c	1.721226e-05
59	0xba08e1e5	-0.0005221649
60	0x00000000	0.0
61	0x115e54bd	1.7538824e-28
62	0x1d20e0d0	2.129205e-21
63	0xbc005da2	-0.007834824
64	0x3779904c	1.4875153e-05
65	0xbe61bbef	-0.22044347
66	0x3a891fef	0.0010461787
67	0x3b04058e	0.0020144912
68	0x00000000	0.0
69	0x3b2539eb	0.0025211524
70	0x3a5b9496	0.0008376328
71	0xbb48bbe3	-0.0030629567
72	0x3c1dc3be	0.009629188
73	0x00000000	0.0
74	0x00000000	0.0
75	0x00000000	0.0
76	0x00000000	0.0
77	0x00000000	0.0
78	0x00000000	0.0
79	0x3affece0	0.001952555
80	0x3a48c2f3	0.0007658444
81	0xbb44f729	-0.0030054545
82	0x3c26b260	0.010174364
83	0x00000000	0.0
84	0x390e6b76	0.00013582208
85	0x394e4902	0.00019672888
86	0x38c06163	9.173413e-05
87	0x3b96ede2	0.0046059946
88	0x00000000	0.0
89	0x37b2bd18	2.1307307e-05
90	0x367f0a4b	3.8003952e-06
91	0xb7b331b5	-2.136161e-05
92	0x37b28ab4	2.1283842e-05
93	0x3a26aaf5	0.0006357872
94	0x00000000	0.0
95	0x116dc3e4	1.8756367e-28
96	0x1bd462f9	3.5136418e-22
97	0x3bd2970f	0.006426699
98	0x37ae9144	2.0810061e-05
99	0x3e2d6d92	0.16936329
100	0xba57e4f6	-0.0008235717
101	0xbadd928a	-0.0016904634
102	0x00000000	0.0
103	0x3c36a7a1	0.011148364
104	0xbc7044cb	-0.014664839
105	0xbc35e600	-0.0111022
106	0x3c92a125	0.017899105
107	0x00000000	0.0
108	0x00000000	0.0
109	0x00000000	0.0
110	0x00000000	0.0
111	0x00000000	0.0
112	0x00000000	0.0
113	0x3c122285	0.008919363
114	0xbc65c0f3	-0.014023053
115	0xbc44f525	-0.012021338
116	0x3c9b915b	0.01899021
117	0x00000000	0.0
118	0x3a98896d	0.0011637636
119	0xbb996ab5	-0.00468191
120	0xbba20b76	-0.004945214
121	0x3c00d915	0.007864256
122	0x00000000	0.0
123	0x38d98304	0.0001037177
124	0xb82856f6	-4.013531e-05
125	0xb8d8651c	-0.00010318516
126	0x38da8a26	0.00010420782
127	0x3a4af023	0.00077414716
128	0x00000000	0.0
129	0x12837d2b	8.298119e-28
130	0x9d8ff394	-3.810364e-21
131	0x3c0142f4	0.007889498
132	0x38e4ed2c	0.00010916064
133	0x3ed430fb	0.4144362
134	0x3a7ada2b	0.0009569253
135	0x3a957c9b	0.0011404933
136	0x00000000	0.0
137	0xbadb03cc	-0.0016709506
138	0xbb9f6fd8	-0.0048656277
139	0xbc087c66	-0.00833044
140	0x3cd4ade0	0.025961816
141	0x00000000	0.0
142	0x00000000	0.0
143	0x00000000	0.0
144	0x00000000	0.0
145	0x00000000	0.0
146	0x00000000	0.0
147	0xba8ee7d2	-0.0010902828
148	0xbb9b968f	-0.0047481726
149	0xbc0b07ea	-0.008485774
150	0x3ccfd55c	0.025370292
151	0x00000000	0.0
152	0xba55c588	-0.00081547396
153	0xbb0a2b05	-0.002108277
154	0xbb2faf4e	-0.002680737
155	0x3c341742	0.010991873
156	0x00000000	0.0
157	0xb83b6909	-4.4682096e-05
158	0xb6c3ac03	-5.8314777e-06
159	0x383bba26	4.475764e-05
160	0xb83b31a9	-4.4630524e-05
161	0x3a76cda0	0.0009414796
162	0x00000000	0.0
163	0x91dd12d0	-3.4879246e-28
164	0x9c2cf3c2	-5.7225076e-22
165	0x3c5111d7	0.012760601
166	0xb83834b2	-4.3918095e-05
167	0x3e8f65b4	0.2800728
168	0xbb0f832d	-0.0021898255
169	0xbb828e30	-0.003984235
170	0x00000000	0.0
171	0x3c8f0fbb	0.017463556
172	0xbc13075f	-0.008973925
173	0xbc9da048	-0.019241467
174	0x3c51d97b	0.012808199
175	0x00000000	0.0
176	0x00000000	0.0
177	0x00000000	0.0
178	0x00000000	0.0
179	0x00000000	0.0
180	0x00000000	0.0
181	0x3c5ee71a	0.013604904
182	0xbc0d727a	-0.00863325
183	0xbc9a75ff	-0.018855093
184	0x3c751234	0.014957953
185	0x00000000	0.0
186	0x3af6df9b	0.001883495
187	0xbb510c7d	-0.0031898313
188	0xbb5532a4	-0.0032531405
189	0x3bafb9fa	0.0053627463
190	0x00000000	0.0
191	0x391f4b4c	0.00015191472
192	0xb796bcfa	-1.7969393e-05
193	0xb91f10d1	-0.00015169686
194	0x391f97e5	0.00015220007
195	0x3a536605	0.00080642133
196	0x00000000	0.0
197	0x12bb4871	1.1819217e-27
198	0x9d166f57	-1.9909896e-21
199	0x3bc8e1ea	0.0061304467
200	0x3921ebba	0.00015441971
201	0x3e8967da	0.26837045
202	0xba9610b9	-0.0011449076
203	0xbb5fc649	-0.0034145287
204	0x00000000	0.0
205	0x3b1733aa	0.0023071566
206	0xbc12a91e	-0.0089514535
207	0xbb00b057	-0.0019636357
208	0x3b932b6d	0.0044912607
209	0x00000000	0.0
210	0x00000000	0.0
211	0x00000000	0.0
212	0x00000000	0.0
213	0x00000000	0.0
214	0x00000000	0.0
215	0x3b02d3fd	0.001996278
216	0xbc0bbe64	-0.008529279
217	0xbb312c32	-0.00270344
218	0x3b90a29d	0.0044139163
219	0x00000000	0.0
220	0x39a8e73b	0.00032215737
221	0xbb37065b	-0.0027927372
222	0xbb3dda96	-0.0028969399
223	0x3aec33de	0.0018020829
224	0x00000000	0.0
225	0x37cf8c80	2.4741748e-05
226	0xb7d1ed59	-2.5025265e-05
227	0xb7ccd23c	-2.4416593e-05
228	0x37d1fd6c	2.503275e-05
229	0x38685c4a	5.539906e-05
230	0x00000000	0.0
231	0x1184c0f4	2.0944844e-28
232	0x9d3a859b	-2.4685967e-21
233	0x39d61b74	0.00040837715
234	0x37ebeedd	2.8125412e-05
235	0x3e106b0b	0.14103334
236	0x3ab88554	0.0014077821
237	0x3b28183b	0.0025649208
238	0x00000000	0.0
239	0xbc0ea8b2	-0.008707212
240	0x3c8997dc	0.016796045
241	0x3c84a218	0.016190574
242	0xbcc28d39	-0.02374898
243	0x00000000	0.0
244	0x00000000	0.0
245	0x00000000	0.0
246	0x00000000	0.0
247	0x00000000	0.0
248	0x00000000	0.0
249	0xbbe9c021	-0.0071334993
250	0x3c8412c5	0.016122231
251	0x3c896115	0.016769925
252	0xbcc51c04	-0.02406121
253	0x00000000	0.0
254	0xba2d41f9	-0.0006609257
255	0x3bc17136	0.0059033884

exp_avg_sq f4 [12]
0	0x3f5f7087	0.8728108
1	0x3f3b0b9c	0.7306459
2	0x3f8e5d7a	1.1122277
3	0x3ee4b780	0.4467125
4	0x3f907e3e	1.1288526
5	0x399c54cb	0.00029817814
6	0x3ed74553	0.42045078
7	0x3e92a963	0.28644857
8	0x3a3747e0	0.0006991606
9	0x3e524510	0.20534158
10	0x3832d495	4.263649e-05
11	0x3ebc99e1	0.3683615

exp_avg f4 [12]
0	0x3f0898e1	0.53358275
1	0xbef56683	-0.47929773
2	0x3f1c7963	0.6112272
3	0x3ec5154d	0.38492814
4	0xbf1a4730	-0.60264874
5	0xbbcd8c50	-0.00627283
6	0x3ebfcaa8	0.37459302
7	0x3e9a2648	0.3010733
8	0x3cf4b801	0.029872896
9	0x3e876964	0.26447594
10	0x3bae14cc	0.005312538
11	0xbeb2e363	-0.34939107

exp_avg_sq f4 [22]
0	0x3e86acc5	0.26303688
1	0x3dadf8a7	0.08494692
2	0x3e53937a	0.20661727
3	0x3e3b42ee	0.1828725
4	0x3de293c3	0.110633396
5	0x3ed600ad	0.4179739
6	0x3d0ca2c4	0.034334913
7	0x3d6664d6	0.05624851
8	0x3f512a11	0.81704813
9	0x3d299e6e	0.041410856
10	0x3c867b2b	0.016416153
11	0x3d50b4fa	0.050953843
12	0x3d81cb58	0.06337613
13	0x3e3b8424	0.18312126
14	0x3cad23a5	0.02113516
15	0x3d1901c4	0.0373552
16	0x3d1be9c6	0.03806474
17	0x3e383de9	0.17992367
18	0x3cc4cee0	0.024024427
19	0x3d59187f	0.053001877
20	0x3e085dda	0.13317052
21	0x3e317dde	0.17333171

exp_avg f4 [22]
0	0x3e8a14ab	0.26968893
1	0xbe63d2f2	-0.22248438
2	0x3e2e8729	0.17043747
3	0x3ed5eee4	0.41783822
4	0x3e908d69	0.28232887
5	0x3e8a64c0	0.2702999
6	0x3e11d712	0.14242199
7	0xbec2d4d1	-0.3805299
8	0xbe29ea91	-0.16593386
9	0x3e292679	0.16518582
10	0xbc2e9752	-0.010656195
11	0xbd207550	-0.039174378
12	0x3b0768c4	0.002066181
13	0x3ed4b0e1	0.41541198
14	0xbdb07130	-0.08615339
15	0x3c913fe2	0.017730657
16	0xbe11b10b	-0.14227693
17	0xbe9a7514	-0.3016745
18	0xbe75c96b	-0.24002616
19	0x3eb96d76	0.36216325
20	0x3d8256f0	0.06364238
21	0xbe249446	-0.16072187

exp_avg_sq f4 [5, 22]
0	0x3d4fd208	0.05073741
1	0x3ba6fd40	0.0050961077
2	0x3d55cc18	0.052196592
3	0x3ddc28ae	0.107499465
4	0x3a52170d	0.0008014299
5	0x3bb058e8	0.005381692
6	0x3d84bc55	0.06481234
7	0x3deb836b	0.11499675
8	0x3a9a9026	0.0011792227
9	0x39f75308	0.00047173374
10	0x3d1658a5	0.03670563
11	0x3b8da7a0	0.004322961
12	0x3d6f0434	0.058353618
13	0x3ba5e417	0.005062591
14	0x3d3bd56c	0.04585783
15	0x3ccc40d8	0.024933264
16	0x3adc654c	0.0016814857
17	0x396301ad	0.00021649031
18	0x3d91567d	0.070965745
19	0x3d3dba73	0.04632039
20	0x3ba9d636	0.0051830066
21	0x3d8fb2db	0.07016536
22	0x3cebbbe9	0.028776126
23	0x3b6a95e5	0.003579491
24	0x3cf292da	0.02961104
25	0x3d92f82e	0.07176243
26	0x39c8cb02	0.00038298225
27	0x3b9d9f29	0.004810233
28	0x3d42ef74	0.04759164
29	0x3d8b9e20	0.06817269
30	0x3b12949d	0.0022366412
31	0x39a03a5d	0.00030561062
32	0x3cb2b501	0.021814825
33	0x3b4d6ae9	0.003134424
34	0x3d06d635	0.032919127
35	0x3b3a5864	0.0028434033
36	0x3cccfd6e	0.025023188
37	0x3c8ba529	0.017046528
38	0x3a5e8cce	0.00084896095
39	0x38f4af48	0.00011667475
40	0x3d395dbe	0.045255415
41	0x3d0f16c3	0.034933817
42	0x3b9d2d31	0.004796647
43	0x3d1b47e5	0.03791036
44	0x3c256936	0.010095885
45	0x3ace4316	0.0015736546
46	0x3c55b80c	0.0130443685
47	0x3cd78e82	0.02631307
48	0x39ec7046	0.00045097078
49	0x3b0cefba	0.0021505193
50	0x3c907f7c	0.017638914
51	0x3cc84b81	0.024450066
52	0x3a9683a4	0.0011483324
53	0x3925043f	0.00015737208
54	0x3c02cecf	0.007983877
55	0x3ab656b4	0.0013911338
56	0x3c3626b5	0.011117627
57	0x3ac8b56c	0.0015312857
58	0x3c27fe78	0.010253541
59	0x3bc39b4d	0.005969441
60	0x3a961534	0.0011450411
61	0x38fd0243	0.000120644014
62	0x3c8a3dea	0.016875226
63	0x3c69626b	0.014244656
64	0x3b05c4ca	0.0020411485
65	0x3c4cdecd	0.012504292
66	0x3d1fe713	0.03903873
67	0x3bb6c834	0.0055780653
68	0x3d25f842	0.04051996
69	0x3dda9d51	0.10674537
70	0x3a1236e0	0.0005577635
71	0x3bec2401	0.0072064404
72	0x3d9fc438	0.07801098
73	0x3dc732bc	0.09726474
74	0x3bac8d1f	0.0052658464
75	0x3a531e3f	0.0008053518
76	0x3cf6169b	0.030040076
77	0x3b7e276c	0.0038780821
78	0x3d364fae	0.044509582
79	0x3b63a809	0.0034737608
80	0x3d081bed	0.033229757
81	0x3cc813d1	0.024423512
82	0x3af65caa	0.0018795927
83	0x390ed3b0	0.00013621035
84	0x3d878469	0.06617052
85	0x3d6754a4	0.056477204
86	0x3c138855	0.009004672
87	0x3d48f407	0.049060848
88	0x3c364eac	0.011127155
89	0x3ab288d1	0.0013621097
90	0x3c4c7f46	0.012481516
91	0x3ce5d93f	0.028057693
92	0x39811fe1	0.0002462855
93	0x3b12daa4	0.0022408152
94	0x3c9e2943	0.019306784
95	0x3cdf15c9	0.027232068
96	0x3a617079	0.00085998286
97	0x3a1ea9b0	0.0006052507
98	0x3c0553e7	0.00813768
99	0x3abb657d	0.0014297214
100	0x3c55ec63	0.013056847
101	0x3a6edabd	0.0009111574
102	0x3c204a6f	0.009783371
103	0x3bea697c	0.007153688
104	0x39f1e7d4	0.00046139827
105	0x390e42d1	0.00013567066
106	0x3c99f62c	0.018794142
107	0x3c6c0657	0.014405808
108	0x3b042be2	0.0020167758
109	0x3c6e7084	0.014553193

exp_avg f4 [5, 22]
0	0x3cd6b712	0.026210342
1	0x3b767f8e	0.003761265
2	0x3cc1c746	0.023654591
3	0xbd269921	-0.04067338
4	0x3afded6b	0.0019373124
5	0xbbc6d0cf	-0.0060673724
6	0x3d0c765f	0.034292575
7	0xbd2a58ed	-0.041588712
8	0x3bbbe47e	0.0057340255
9	0xbc17879f	-0.009248643
10	0x3cb0a253	0.021561777
11	0xbc6e27e0	-0.014535874
12	0xbcfe92de	-0.031075891
13	0x3b9bbb8f	0.0047525833
14	0x3cd1e66d	0.02562257
15	0xbcbfdbec	-0.023420297
16	0xbc0ca17e	-0.008583425
17	0xbbac1042	-0.0052509615
18	0xbd05362f	-0.032522377
19	0x3cf1ec11	0.02953151
20	0xbc6e3684	-0.014539365
21	0xbd03fb5f	-0.032222148
22	0xbc991502	-0.018686775
23	0xbcacf420	-0.021112502
24	0xbcc1fe52	-0.02368084
25	0x3d63c48d	0.055607367
26	0xbb8a42e6	-0.0042194007
27	0x3cabc055	0.020965734
28	0xbd23d0b8	-0.03999397
29	0x3cee4feb	0.029090842
30	0xbcaf677a	-0.021411646
31	0xbbcab1e9	-0.0061857593
32	0xbcce65db	-0.025195053
33	0x3c5c4326	0.013443744
34	0x3c9829f7	0.018574698
35	0xbc5602c7	-0.013062186
36	0xbcf6527c	-0.030068628
37	0x3cab397c	0.020901434
38	0xbc24e8f1	-0.010065303
39	0xbb02f733	-0.0019983768
40	0x3d12824c	0.035768792
41	0xbd0631b7	-0.032762256
42	0x3ca5e82e	0.020252313
43	0x3c980eca	0.01856174
44	0x3de9b6f9	0.114118524
45	0x3d214269	0.039369974
46	0x3e26fa09	0.16306318
47	0xbe77f530	-0.24214625
48	0xbc11be57	-0.008895478
49	0xbddd4bea	-0.10805495
50	0x3e317db2	0.17333105
51	0xbe4bd311	-0.19904734
52	0x3d23cf82	0.039992817
53	0xbcabd86c	-0.020977221
54	0x3dd47501	0.10373879
55	0xbd3a53d6	-0.04549011
56	0xbe01323c	-0.12616819
57	0x3ca9f44f	0.020746378
58	0x3e13bae2	0.14426759
59	0xbdf4b2a2	-0.11948134
60	0x3cf87044	0.03032697
61	0xbc916387	-0.017747654
62	0xbe484e98	-0.19561231
63	0x3e301aa4	0.17197663
64	0xbd61d135	-0.055131156
65	0xbe06835f	-0.13136052
66	0xbaa9dcba	-0.0012959458
67	0xbb1936b3	-0.002337855
68	0xbc04419f	-0.008072286
69	0xbba85cba	-0.005138007
70	0x3b2d728a	0.0026465976
71	0xbbdbe800	-0.006711006
72	0x3bd62355	0.0065349736
73	0x3b254f59	0.0025224297
74	0x3c616545	0.013757055
75	0x3b9d9c25	0.0048098736
76	0xbb746020	-0.003728874
77	0x3bb4a96c	0.0055133607
78	0x3b533316	0.0032226495
79	0xbbe38707	-0.0069435867
80	0xbbd04703	-0.0063561215
81	0x3b15ae0d	0.0022839338
82	0x3c36f2cf	0.0111662885
83	0xbadd5af6	-0.001688807
84	0xbb08fe41	-0.00209035
85	0xba2ffd2c	-0.0006713446
86	0xbc631770	-0.013860568
87	0x3c31ffa1	0.010864169
88	0xbdf67809	-0.12034614
89	0xbca139cf	-0.019680886
90	0xbe1eaf09	-0.15496458
91	0x3e6ded3b	0.23235027
92	0x3c0bc579	0.008530968
93	0x3dcc875d	0.09986756
94	0xbe325839	-0.17416467
95	0x3e560a10	0.20902276
96	0xbd1bf1a7	-0.038072255
97	0x3d0170d6	0.03160175
98	0xbdc5611e	-0.09637664
99	0x3d2837d9	0.041068885
100	0x3e0ab28e	0.13544676
101	0xbbb40029	-0.005493183
102	0xbe08ab28	-0.13346541
103	0x3df52dcb	0.11971625
104	0xbcbb2474	-0.02284453
105	0x3cda9c2e	0.0266858
106	0x3e471f89	0.19445623
107	0xbe2c1bbc	-0.16807455
108	0x3d81984e	0.06327878
109	0x3e096062	0.13415673

exp_avg_sq f4 [5]
0	0x3f355897	0.708383
1	0x3ee3f392	0.44521767
2	0x3e2f2764	0.1710487
3	0x3f230114	0.6367352
4	0x3e35f756	0.17770132

exp_avg f4 [5]
0	0x3dd5397b	0.10411354
1	0xbdd45645	-0.10368017
2	0x3f1663b2	0.5874587
3	0xbc1f58f1	-0.009725795
4	0xbf1402b7	-0.5781664

next_states f4 [232, 34]
0	0x00000000	0.0
1	0x00000000	0.0
2	0x00000000	0.0
3	0x00000000	0.0
4	0x00000000	0.0
5	0x00000000	0.0
6	0x00000000	0.0
7	0x00000000	0.0
8	0x00000000	0.0
9	0x00000000	0.0
10	0x00000000	0.0
11	0x00000000	0.0
12	0x00000000	0.0
13	0x00000000	0.0
14	0x00000000	0.0
15	0x00000000	0.0
16	0x00000000	0.0
17	0x00000000	0.0
18	0x00000000	0.0
19	0x00000000	0.0
20	0x00000000	0.0
21	0x00000000	0.0
22	0x00000000	0.0
23	0x00000000	0.0
24	0x00000000	0.0
25	0x00000000	0.0
26	0x00000000	0.0
27	0x00000000	0.0
28	0x00000000	0.0
29	0x00000000	0.0
30	0x00000000	0.0
31	0x00000000	0.0
32	0x00000000	0.0
33	0x00000000	0.0
34	0x00000000	0.0
35	0x3d4b47f4	0.049629167
36	0x00000000	0.0
37	0xbd4b47f4	-0.049629167
38	0xbd4b47f4	-0.049629167
39	0x00000000	0.0
40	0x00000000	0.0
41	0x00000000	0.0
42	0x00000000	0.0
43	0x00000000	0.0
44	0x00000000	0.0
45	0x3d4b47f4	0.049629167
46	0x00000000	0.0
47	0xbd4b47f4	-0.049629167
48	0xbd4b47f4	-0.049629167
49	0x00000000	0.0
50	0x00000000	0.0
51	0x00000000	0.0
52	0x00000000	0.0
53	0x00000000	0.0
54	0x00000000	0.0
55	0x00000000	0.0
56	0x00000000	0.0
57	0x00000000	0.0
58	0x00000000	0.0
59	0x00000000	0.0
60	0x00000000	0.0
61	0x00000000	0.0
62	0x00000000	0.0
63	0x00000000	0.0
64	0x00000000	0.0
65	0x3f7e19f1	0.99258333
66	0x00000000	0.0
67	0x00000000	0.0
68	0x00000000	0.0
69	0x00000000	0.0
70	0x3d4bc89b	0.04975186
71	0x00000000	0.0
72	0xbd4bc89b	-0.04975186
73	0x00000000	0.0
74	0x00000000	0.0
75	0x00000000	0.0
76	0x00000000	0.0
77	0x00000000	0.0
78	0x00000000	0.0
79	0x00000000	0.0
80	0x3d4bc89b	0.04975186
81	0x00000000	0.0
82	0xbd4bc89b	-0.04975186
83	0x00000000	0.0
84	0x00000000	0.0
85	0x00000000	0.0
86	0x00000000	0.0
87	0x00000000	0.0
88	0x00000000	0.0
89	0x00000000	0.0
90	0x00000000	0.0
91	0x00000000	0.0
92	0x00000000	0.0
93	0x00000000	0.0
94	0x00000000	0.0
95	0x00000000	0.0
96	0x00000000	0.0
97	0x00000000	0.0
98	0x00000000	0.0
99	0x3f7ebac2	0.9950372
100	0x00000000	0.0
101	0x00000000	0.0
102	0x00000000	0.0
103	0x3d4bc89b	0.04975186
104	0xbd4bc89b	-0.04975186
105	0x00000000	0.0
106	0x00000000	0.0
107	0x00000000	0.0
108	0x00000000	0.0
109	0x00000000	0.0
110	0x00000000	0.0
111	0x00000000	0.0
112	0x00000000	0.0
113	0x3d4bc89b	0.04975186
114	0xbd4bc89b	-0.04975186
115	0x00000000	0.0
116	0x00000000	0.0
117	0x00000000	0.0
118	0x00000000	0.0
119	0x00000000	0.0
120	0x00000000	0.0
121	0x00000000	0.0
122	0x00000000	0.0
123	0x00000000	0.0
124	0x00000000	0.0
125	0x00000000	0.0
126	0x00000000	0.0
127	0x00000000	0.0
128	0x00000000	0.0
129	0x00000000	0.0
130	0x00000000	0.0
131	0x00000000	0.0
132	0x00000000	0.0
133	0x3f7ebac2	0.9950372
134	0x00000000	0.0
135	0x00000000	0.0
136	0x00000000	0.0
137	0x00000000	0.0
138	0x00000000	0.0
139	0x3d4bc89b	0.04975186
140	0xbd4bc89b	-0.04975186
141	0x00000000	0.0
142	0x00000000	0.0
143	0x00000000	0.0
144	0x00000000	0.0
145	0x00000000	0.0
146	0x00000000	0.0
147	0x00000000	0.0
148	0x00000000	0.0
149	0x3d4bc89b	0.04975186
150	0xbd4bc89b	-0.04975186
151	0x00000000	0.0
152	0x00000000	0.0
153	0x00000000	0.0
154	0x00000000	0.0
155	0x00000000	0.0
156	0x00000000	0.0
157	0x00000000	0.0
158	0x00000000	0.0
159	0x00000000	0.0
160	0x00000000	0.0
161	0x00000000	0.0
162	0x00000000	0.0
163	0x00000000	0.0
164	0x00000000	0.0
165	0x00000000	0.0
166	0x00000000	0.0
167	0x3f7ebac2	0.9950372
168	0x00000000	0.0
169	0x00000000	0.0
170	0x00000000	0.0
171	0x00000000	0.0
172	0xbd4b47f4	-0.049629167
173	0xbd4b47f4	-0.049629167
174	0x3d4b47f4	0.049629167
175	0x00000000	0.0
176	0x00000000	0.0
177	0x00000000	0.0
178	0x00000000	0.0
179	0x00000000	0.0
180	0x00000000	0.0
181	0x00000000	0.0
182	0xbd4b47f4	-0.049629167
183	0xbd4b47f4	-0.049629167
184	0x3d4b47f4	0.049629167
185	0x00000000	0.0
186	0x00000000	0.0
187	0x00000000	0.0
188	0x00000000	0.0
189	0x00000000	0.0
190	0x00000000	0.0
191	0x00000000	0.0
192	0x00000000	0.0
193	0x00000000	0.0
194	0x00000000	0.0
195	0x00000000	0.0
196	0x00000000	0.0
197	0x00000000	0.0
198	0x00000000	0.0
199	0x00000000	0.0
200	0x00000000	0.0
201	0x3f7e19f1	0.99258333
202	0x00000000	0.0
203	0x00000000	0.0
204	0x00000000	0.0
205	0x00000000	0.0
206	0x00000000	0.0
207	0x00000000	0.0
208	0x3d4c4a38	0.049875468
209	0x00000000	0.0
210	0x00000000	0.0
211	0x00000000	0.0
212	0x00000000	0.0
213	0x00000000	0.0
214	0x00000000	0.0
215	0x00000000	0.0
216	0x00000000	0.0
217	0x00000000	0.0
218	0x3d4c4a38	0.049875468
219	0x00000000	0.0
220	0x00000000	0.0
221	0x00000000	0.0
222	0x00000000	0.0
223	0x00000000	0.0
224	0x00000000	0.0
225	0x00000000	0.0
226	0x00000000	0.0
227	0x00000000	0.0
228	0x00000000	0.0
229	0x00000000	0.0
230	0x00000000	0.0
231	0x00000000	0.0
232	0x00000000	0.0
233	0x00000000	0.0
234	0x00000000	0.0
235	0x3f7f5cc6	0.99750936
236	0x00000000	0.0
237	0x00000000	0.0
238	0x00000000	0.0
239	0xbd4bc89b	-0.04975186
240	0x00000000	0.0
241	0x3d4bc89b	0.04975186
242	0x00000000	0.0
243	0x00000000	0.0
244	0x00000000	0.0
245	0x00000000	0.0
246	0x00000000	0.0
247	0x00000000	0.0
248	0x00000000	0.0
249	0xbd4bc89b	-0.04975186
250	0x00000000	0.0
251	0x3d4bc89b	0.04975186
252	0x00000000	0.0
253	0x00000000	0.0
254	0x00000000	0.0
255	0x00000000	0.0

done f4 [232, 1]
0	0x3f800000	1.0
1	0x00000000	0.0
2	0x00000000	0.0
3	0x00000000	0.0
4	0x00000000	0.0
5	0x00000000	0.0
6	0x00000000	0.0
7	0x00000000	0.0
8	0x00000000	0.0
9	0x00000000	0.0
10	0x00000000	0.0
11	0x00000000	0.0
12	0x00000000	0.0
13	0x00000000	0.0
14	0x00000000	0.0
15	0x00000000	0.0
16	0x00000000	0.0
17	0x00000000	0.0
18	0x00000000	0.0
19	0x00000000	0.0
20	0x00000000	0.0
21	0x00000000	0.0
22	0x00000000	0.0
23	0x00000000	0.0
24	0x00000000	0.0
25	0x00000000	0.0
26	0x00000000	0.0
27	0x00000000	0.0
28	0x00000000	0.0
29	0x00000000	0.0
30	0x00000000	0.0
31	0x00000000	0.0
32	0x00000000	0.0
33	0x00000000	0.0
34	0x00000000	0.0
35	0x00000000	0.0
36	0x00000000	0.0
37	0x00000000	0.0
38	0x00000000	0.0
39	0x00000000	0.0
40	0x00000000	0.0
41	0x00000000	0.0
42	0x00000000	0.0
43	0x00000000	0.0
44	0x00000000	0.0
45	0x00000000	0.0
46	0x00000000	0.0
47	0x00000000	0.0
48	0x00000000	0.0
49	0x00000000	0.0
50	0x00000000	0.0
51	0x00000000	0.0
52	0x00000000	0.0
53	0x00000000	0.0
54	0x00000000	0.0
55	0x00000000	0.0
56	0x00000000	0.0
57	0x00000000	0.0
58	0x00000000	0.0
59	0x00000000	0.0
60	0x00000000	0.0
61	0x00000000	0.0
62	0x00000000	0.0
63	0x00000000	0.0
64	0x00000000	0.0
65	0x00000000	0.0
66	0x00000000	0.0
67	0x00000000	0.0
68	0x00000000	0.0
69	0x00000000	0.0
70	0x00000000	0.0
71	0x00000000	0.0
72	0x00000000	0.0
73	0x00000000	0.0
74	0x00000000	0.0
75	0x00000000	0.0
76	0x00000000	0.0
77	0x00000000	0.0
78	0x00000000	0.0
79	0x00000000	0.0
80	0x00000000	0.0
81	0x00000000	0.0
82	0x00000000	0.0
83	0x00000000	0.0
84	0x00000000	0.0
85	0x00000000	0.0
86	0x00000000	0.0
87	0x00000000	0.0
88	0x00000000	0.0
89	0x00000000	0.0
90	0x00000000	0.0
91	0x00000000	0.0
92	0x00000000	0.0
93	0x00000000	0.0
94	0x00000000	0.0
95	0x00000000	0.0
96	0x00000000	0.0
97	0x00000000	0.0
98	0x00000000	0.0
99	0x00000000	0.0
100	0x00000000	0.0
101	0x00000000	0.0
102	0x00000000	0.0
103	0x00000000	0.0
104	0x00000000	0.0
105	0x00000000	0.0
106	0x00000000	0.0
107	0x00000000	0.0
108	0x00000000	0.0
109	0x00000000	0.0
110	0x00000000	0.0
111	0x00000000	0.0
112	0x00000000	0.0
113	0x00000000	0.0
114	0x00000000	0.0
115	0x00000000	0.0
116	0x00000000	0.0
117	0x00000000	0.0
118	0x00000000	0.0
119	0x00000000	0.0
120	0x00000000	0.0
121	0x00000000	0.0
122	0x00000000	0.0
123	0x00000000	0.0
124	0x00000000	0.0
125	0x00000000	0.0
126	0x00000000	0.0
127	0x00000000	0.0
128	0x00000000	0.0
129	0x00000000	0.0
130	0x00000000	0.0
131	0x00000000	0.0
132	0x00000000	0.0
133	0x00000000	0.0
134	0x00000000	0.0
135	0x00000000	0.0
136	0x00000000	0.0
137	0x00000000	0.0
138	0x00000000	0.0
139	0x00000000	0.0
140	0x00000000	0.0
141	0x00000000	0.0
142	0x00000000	0.0
143	0x00000000	0.0
144	0x00000000	0.0
145	0x00000000	0.0
146	0x00000000	0.0
147	0x00000000	0.0
148	0x00000000	0.0
149	0x00000000	0.0
150	0x00000000	0.0
151	0x00000000	0.0
152	0x00000000	0.0
153	0x00000000	0.0
154	0x00000000	0.0
155	0x00000000	0.0
156	0x00000000	0.0
157	0x00000000	0.0
158	0x3f800000	1.0
159	0x00000000	0.0
160	0x00000000	0.0
161	0x00000000	0.0
162	0x00000000	0.0
163	0x00000000	0.0
164	0x00000000	0.0
165	0x00000000	0.0
166	0x00000000	0.0
167	0x00000000	0.0
168	0x00000000	0.0
169	0x00000000	0.0
170	0x00000000	0.0
171	0x00000000	0.0
172	0x00000000	0.0
173	0x00000000	0.0
174	0x00000000	0.0
175	0x00000000	0.0
176	0x00000000	0.0
177	0x00000000	0.0
178	0x00000000	0.0
179	0x00000000	0.0
180	0x00000000	0.0
181	0x00000000	0.0
182	0x00000000	0.0
183	0x00000000	0.0
184	0x00000000	0.0
185	0x00000000	0.0
186	0x00000000	0.0
187	0x00000000	0.0
188	0x00000000	0.0
189	0x00000000	0.0
190	0x00000000	0.0
191	0x00000000	0.0
192	0x00000000	0.0
193	0x00000000	0.0
194	0x00000000	0.0
195	0x00000000	0.0
196	0x00000000	0.0
197	0x00000000	0.0
198	0x00000000	0.0
199	0x00000000	0.0
200	0x00000000	0.0
201	0x00000000	0.0
202	0x00000000	0.0
203	0x00000000	0.0
204	0x00000000	0.0
205	0x00000000	0.0
206	0x00000000	0.0
207	0x00000000	0.0
208	0x00000000	0.0
209	0x00000000	0.0
210	0x00000000	0.0
211	0x00000000	0.0
212	0x00000000	0.0
213	0x00000000	0.0
214	0x00000000	0.0
215	0x00000000	0.0
216	0x00000000	0.0
217	0x00000000	0.0
218	0x00000000	0.0
219	0x00000000	0.0
220	0x00000000	0.0
221	0x00000000	0.0
222	0x00000000	0.0
223	0x00000000	0.0
224	0x00000000	0.0
225	0x00000000	0.0
226	0x00000000	0.0
227	0x00000000	0.0
228	0x00000000	0.0
229	0x00000000	0.0
230	0x00000000	0.0
231	0x00000000	0.0

states f4 [232, 34]
0	0x00000000	0.0
1	0x00000000	0.0
2	0x00000000	0.0
3	0x3d6122f3	0.05496497
4	0x00000000	0.0
5	0x00000000	0.0
6	0x00000000	0.0
7	0x00000000	0.0
8	0x00000000	0.0
9	0x00000000	0.0
10	0x00000000	0.0
11	0x00000000	0.0
12	0x00000000	0.0
13	0x3d6122f3	0.05496497
14	0x00000000	0.0
15	0x00000000	0.0
16	0x00000000	0.0
17	0x00000000	0.0
18	0x00000000	0.0
19	0x00000000	0.0
20	0x00000000	0.0
21	0x00000000	0.0
22	0x00000000	0.0
23	0x00000000	0.0
24	0x00000000	0.0
25	0x00000000	0.0
26	0x00000000	0.0
27	0x00000000	0.0
28	0x00000000	0.0
29	0x00000000	0.0
30	0x00000000	0.0
31	0x3f7d4751	0.98936945
32	0x3d6122f3	0.05496497
33	0x3de122f3	0.10992994
34	0x00000000	0.0
35	0x00000000	0.0
36	0x3d4bc89b	0.04975186
37	0x00000000	0.0
38	0xbd4bc89b	-0.04975186
39	0x00000000	0.0
40	0x00000000	0.0
41	0x00000000	0.0
42	0x00000000	0.0
43	0x00000000	0.0
44	0x00000000	0.0
45	0x00000000	0.0
46	0x3d4bc89b	0.04975186
47	0x00000000	0.0
48	0xbd4bc89b	-0.04975186
49	0x00000000	0.0
50	0x00000000	0.0
51	0x00000000	0.0
52	0x00000000	0.0
53	0x00000000	0.0
54	0x00000000	0.0
55	0x00000000	0.0
56	0x00000000	0.0
57	0x00000000	0.0
58	0x00000000	0.0
59	0x00000000	0.0
60	0x00000000	0.0
61	0x00000000	0.0
62	0x00000000	0.0
63	0x00000000	0.0
64	0x00000000	0.0
65	0x3f7ebac2	0.9950372
66	0x00000000	0.0
67	0x00000000	0.0
68	0x00000000	0.0
69	0xbd4ac83f	-0.049507376
70	0x3d4ac83f	0.049507376
71	0xbd4ac83f	-0.049507376
72	0xbd4ac83f	-0.049507376
73	0x00000000	0.0
74	0x00000000	0.0
75	0x00000000	0.0
76	0x00000000	0.0
77	0x00000000	0.0
78	0x00000000	0.0
79	0xbd4ac83f	-0.049507376
80	0x3d4ac83f	0.049507376
81	0xbd4ac83f	-0.049507376
82	0xbd4ac83f	-0.049507376
83	0x00000000	0.0
84	0x00000000	0.0
85	0x00000000	0.0
86	0x00000000	0.0
87	0x00000000	0.0
88	0x00000000	0.0
89	0x00000000	0.0
90	0x00000000	0.0
91	0x00000000	0.0
92	0x00000000	0.0
93	0x00000000	0.0
94	0x00000000	0.0
95	0x00000000	0.0
96	0x00000000	0.0
97	0x00000000	0.0
98	0x00000000	0.0
99	0x3f7d7a4f	0.99014753
100	0x00000000	0.0
101	0x00000000	0.0
102	0x00000000	0.0
103	0x00000000	0.0
104	0xbd4a88bf	-0.049446817
105	0xbd4a88bf	-0.049446817
106	0x3d4a88bf	0.049446817
107	0x00000000	0.0
108	0x00000000	0.0
109	0x00000000	0.0
110	0x00000000	0.0
111	0x00000000	0.0
112	0x00000000	0.0
113	0x00000000	0.0
114	0xbd4a88bf	-0.049446817
115	0xbd4a88bf	-0.049446817
116	0x3d4a88bf	0.049446817
117	0x00000000	0.0
118	0x00000000	0.0
119	0xbd4a88bf	-0.049446817
120	0xbd4a88bf	-0.049446817
121	0x3d4a88bf	0.049446817
122	0x00000000	0.0
123	0x00000000	0.0
124	0x00000000	0.0
125	0x00000000	0.0
126	0x00000000	0.0
127	0x00000000	0.0
128	0x00000000	0.0
129	0x00000000	0.0
130	0x00000000	0.0
131	0x00000000	0.0
132	0x00000000	0.0
133	0x3f7d2aef	0.98893636
134	0x00000000	0.0
135	0x00000000	0.0
136	0x00000000	0.0
137	0x00000000	0.0
138	0x3d4bc89b	0.04975186
139	0x00000000	0.0
140	0xbd4bc89b	-0.04975186
141	0x00000000	0.0
142	0x00000000	0.0
143	0x00000000	0.0
144	0x00000000	0.0
145	0x00000000	0.0
146	0x00000000	0.0
147	0x00000000	0.0
148	0x3d4bc89b	0.04975186
149	0x00000000	0.0
150	0xbd4bc89b	-0.04975186
151	0x00000000	0.0
152	0x00000000	0.0
153	0x00000000	0.0
154	0x00000000	0.0
155	0x00000000	0.0
156	0x00000000	0.0
157	0x00000000	0.0
158	0x00000000	0.0
159	0x00000000	0.0
160	0x00000000	0.0
161	0x00000000	0.0
162	0x00000000	0.0
163	0x00000000	0.0
164	0x00000000	0.0
165	0x00000000	0.0
166	0x00000000	0.0
167	0x3f7ebac2	0.9950372
168	0x00000000	0.0
169	0x00000000	0.0
170	0x00000000	0.0
171	0x00000000	0.0
172	0xbd4b47f4	-0.049629167
173	0xbd4b47f4	-0.049629167
174	0x3d4b47f4	0.049629167
175	0x00000000	0.0
176	0x00000000	0.0
177	0x00000000	0.0
178	0x00000000	0.0
179	0x00000000	0.0
180	0x00000000	0.0
181	0x00000000	0.0
182	0xbd4b47f4	-0.049629167
183	0xbd4b47f4	-0.049629167
184	0x3d4b47f4	0.049629167
185	0x00000000	0.0
186	0x00000000	0.0
187	0x00000000	0.0
188	0x00000000	0.0
189	0x00000000	0.0
190	0x00000000	0.0
191	0x00000000	0.0
192	0x00000000	0.0
193	0x00000000	0.0
194	0x00000000	0.0
195	0x00000000	0.0
196	0x00000000	0.0
197	0x00000000	0.0
198	0x00000000	0.0
199	0x00000000	0.0
200	0x00000000	0.0
201	0x3f7e19f1	0.99258333
202	0x00000000	0.0
203	0x00000000	0.0
204	0x00000000	0.0
205	0x00000000	0.0
206	0xbd4b47f4	-0.049629167
207	0xbd4b47f4	-0.049629167
208	0x3d4b47f4	0.049629167
209	0x00000000	0.0
210	0x00000000	0.0
211	0x00000000	0.0
212	0x00000000	0.0
213	0x00000000	0.0
214	0x00000000	0.0
215	0x00000000	0.0
216	0xbd4b47f4	-0.049629167
217	0xbd4b47f4	-0.049629167
218	0x3d4b47f4	0.049629167
219	0x00000000	0.0
220	0x00000000	0.0
221	0x00000000	0.0
222	0x00000000	0.0
223	0x00000000	0.0
224	0x00000000	0.0
225	0x00000000	0.0
226	0x00000000	0.0
227	0x00000000	0.0
228	0x00000000	0.0
229	0x00000000	0.0
230	0x00000000	0.0
231	0x00000000	0.0
232	0x00000000	0.0
233	0x00000000	0.0
234	0x00000000	0.0
235	0x3f7e19f1	0.99258333
236	0x00000000	0.0
237	0x00000000	0.0
238	0x00000000	0.0
239	0x00000000	0.0
240	0x00000000	0.0
241	0x3d4bc89b	0.04975186
242	0xbd4bc89b	-0.04975186
243	0x00000000	0.0
244	0x00000000	0.0
245	0x00000000	0.0
246	0x00000000	0.0
247	0x00000000	0.0
248	0x00000000	0.0
249	0x00000000	0.0
250	0x00000000	0.0
251	0x3d4bc89b	0.04975186
252	0xbd4bc89b	-0.04975186
253	0x00000000	0.0
254	0x00000000	0.0
255	0x00000000	0.0
