model_South.pth (torch, 150624 bytes, 38 tensors)

fc1.weight f4 [43, 37]
-0.12906589 0.12995973 0.15769534 -0.018768065 0.15910062 0.019003937 0.12619363 -0.14236915
-0.20454627 0.24584419 -0.27229413 -0.23052359 -0.05627137 0.15328674 -0.22764198 0.069189556
-0.0005425405 -0.046492822 0.045953672 0.064324014 0.07256981 -0.15554753 -0.12960443 0.034240335
0.03191826 -0.14815642 0.14104965 0.110657774 -0.1983364 0.124382816 0.1644281 0.14843147
0.17205694 0.2729804 -0.08272588 -0.017775493 -0.13207924 0.02992494 0.45757437 0.2082645
-0.23930326 -0.029760744 0.012389889 0.23783456 0.14320353 -0.013977274 0.15989016 0.12371842
0.44943014 0.43074587 0.066074856 0.08331233 -0.18054835 -0.118573524 0.0068465983 -0.13042855
-0.12416063 -0.14808498 -0.15370126 -0.18993755 0.031527046 0.16178349 -0.0692299 -0.021716004
0.09488803 -0.15830849 0.15271132 0.32360741 0.034578394 -0.23520009 -0.25504094 0.049605258
-0.089771196 -0.20448844 -0.24992311 -0.088666745 0.12525521 -0.1932443 -0.036217526 0.22377639
0.07094821 0.19591697 -0.009911474 -0.18614466 0.046125077 -0.039418384 0.25859872 0.19366492
-0.12511672 0.2618857 -0.31122684 0.21986699 0.12984921 0.13169557 -0.21149403 0.12980945
0.123559885 0.22086357 -0.12095086 -0.019545456 -0.07461281 0.14263046 0.15732795 0.092681296
-0.21183781 -0.14458604 0.2064594 -0.2590456 0.14748254 -0.17592283 -0.015791833 0.0626627
-0.0032700896 -0.29448768 -0.07541647 0.58351773 0.0597784 0.2544764 0.16254765 0.16985211
0.012078013 -0.124820635 0.20343243 -0.030972863 -0.10226576 0.31702167 0.076984115 0.034401685
-0.064752296 -0.1627456 0.10591726 -0.21275671 0.059423707 -0.10065289 0.023359364 0.15094285
-0.009754648 -0.20386288 -0.3653571 0.15462805 0.02212539 0.013430157 0.15619448 0.092100896
0.024982579 -0.08084519 -0.06350654 0.14041747 0.3676928 0.19606014 -0.17275096 -0.11672399
0.453828 0.14264856 0.006563739 -0.1578324 -0.0066936733 0.19112155 -0.23634128 0.13890818
-0.0814863 -0.042668507 -0.1782767 0.120734826 0.1475643 -0.24589616 0.09035052 0.22679286
0.23806435 -0.14478719 -0.049576256 0.14819635 0.22942601 -0.14932455 -0.2294962 -0.18661231
0.1261904 0.19531386 -0.08255106 0.013849573 -0.14806265 -0.24016662 0.12951311 -0.11844026
0.43499994 0.109286435 0.1161123 0.03409211 -0.048035223 0.23451418 0.23127332 0.14785613
0.23206067 -0.14591995 0.12408788 -0.1925726 0.031334918 0.0672459 0.25467277 -0.21967155
-0.26108268 -0.31673422 -0.15768276 -0.21154283 -0.025052136 -0.014548953 0.23758157 0.14142884
-0.247146 -0.17119657 -0.09652519 -0.060173716 -0.30216235 -0.029655121 -0.18607539 -0.062267296
0.013517809 -0.18828776 0.04468986 -0.12998767 0.0070173973 0.27482688 -0.038986586 -0.018625489
-0.029220548 0.024774076 0.036464438 0.24093245 -0.027411927 0.09189617 -0.102307916 0.26346987
0.15079473 0.13716915 0.1440327 0.07877913 0.0058220187 0.2669347 -0.087906435 0.30074406
-0.119000226 -0.27949473 0.048849683 0.2394281 0.10376459 0.21416835 0.013918341 -0.30250812
-0.19803786 0.2995664 0.20709902 -0.19694544 -0.115647085 -0.10810873 -0.0068711415 0.009377959
00000000: d929 04be 2a14 053e e37a 213e 7cbf 99bc
00000010: 46eb 223e 25ae 9b3c e738 013e 38c9 11be
00000020: 9474 51be 94be 7b3e 236a 8bbe 600e 6cbe
00000030: cf7c 66bd 33f7 1c3e fb1a 69be 41b3 8d3d
00000040: 4739 0eba 426f 3ebd eb39 3c3d 4fbc 833d
00000050: 7b9f 943d da47 1fbe 06b7 04be 983f 0c3d
00000060: b9bc 023d 51b6 17be 526f 103e 8ba0 e23d
00000070: b218 4bbe 6bbc fe3d d75f 283e 6bfe 173e
00000080: b22f 303e 16c4 8b3e 306c a9bd e99d 91bc
00000090: c83f 07be 2625 f53c 3047 ea3e 4a43 553e
000000a0: ea0b 75be cecc f3bc f6fe 4a3c e78a 733e
000000b0: f2a3 123e f000 65bc 3fba 233e 1560 fd3d
000000c0: b51b e63e b98a dc3e 4152 873d a89f aa3d
000000d0: abe1 38be add6 f2bd 6e59 e03b 108f 05be
000000e0: ee47 febd 97a3 17be dd63 1dbe fd7e 42be
000000f0: 8122 013d 92aa 253e 68c8 8dbd c3e5 b1bc
00000100: a854 c23d 9f1b 22be 5b60 1c3e dfaf a53e
00000110: 13a2 0d3d 4bd8 70be ba94 82be e22e 4b3d
00000120: f6d9 b7bd 6b65 51be d8eb 7fbe e996 b5bd
00000130: e742 003e d5e1 45be d458 14bd a325 653e
00000140: 4c4d 913d 759e 483e bc63 22bc b59c 3ebe
00000150: a6ed 3c3d 2c75 21bd 0d67 843e 1950 463e
00000160: 991e 00be e215 863e 2059 9fbe d024 613e
00000170: 31f7 043e 34db 063e e491 58be c5ec 043e
00000180: f70c fd3d 0f2a 623e 16b5 f7bd cb1d a0bc
00000190: 9ace 98bd b80d 123e 941a 213e b1cf bd3d
000001a0: 03ec 58be 5d0e 14be 186a 533e a0a1 84be
000001b0: aa05 173e 1d25 34be e05d 81bc 4d55 803d
000001c0: 004f 56bb 17c7 96be f373 9abd 6b61 153f
000001d0: 32da 743d bb4a 823e e472 263e b6ed 2d3e
000001e0: dce2 453c f6a1 ffbd 9750 503e cdba fdbc
000001f0: b670 d1bd aa50 a23e d9a9 9d3d c8e8 0c3d
00000200: da9c 84bd c8a6 26be 26eb d83d e5dc 59be
00000210: 4666 733d 1a23 cebd 235c bf3c c390 1a3e
00000220: f6d1 1fbc 6ec1 50be 1610 bbbe d156 1e3e
00000230: 4e40 b53c 290a 5c3c 72f1 1f3e 659f bc3d
00000240: 44a8 cc3c 2a92 a5bd b80f 82bd 99c9 0f3e
00000250: 3b42 bc3e fdc3 483e a1e5 30be fd0c efbd
00000260: 255c e83e 7712 123e a214 d73b d19e 21be
00000270: 9a56 dbbb 5eb5 433e 7303 72be f23d 0e3e
00000280: 4ae2 a6bd 2cc5 2ebd 2b8e 36be d243 f73d
00000290: 191b 173e 34cc 7bbe b209 b93d 633c 683e
000002a0: 24c7 733e 1843 14be 7910 4bbd c9c0 173e
000002b0: a7ee 6a3e 89e8 18be 0d01 6bbe 4c17 3fbe
000002c0: 0e38 013e 5b00 483e 8810 a9bd 52e9 623c
000002d0: bc9d 17be 3dee 75be 169f 043e cf90 f2bd
000002e0: 50b8 de3e 91d1 df3d 49cc ed3d 2ba4 0b3d
000002f0: 95c0 44bd 7c24 703e ead2 6c3e 9967 173e
00000300: 50a1 6d3e 0a6c 15be c921 fe3d c031 45be
00000310: 0b59 003d 38b8 893d 7864 823e 94f1 60be
00000320: a1ac 85be fd2a a2be 9777 21be af9e 58be
00000330: 233a cdbc bb5e 6ebc 9548 733e b9d2 103e
00000340: d713 7dbe 274e 2fbe 00af c5bd b778 76bd
00000350: 06b5 9abe 4cef f2bc 8c8a 3ebe fe0b 7fbd
00000360: cd79 5d3c 82ce 40be b70c 373d 7d1b 05be
00000370: 32f2 e53b 1cb6 8c3e 66b0 1fbd 7b94 98bc
00000380: ee5f efbc 01f3 ca3c bc5b 153d ffb6 763e
00000390: fa8e e0bc 0f34 bc3d d086 d1bd 86e5 863e
000003a0: ef69 1a3e 1276 0c3e 4f7d 133e f456 a13d
000003b0: a2c6 be3b aaab 883e 4a08 b4bd 20fb 993e
000003c0: 64b6 f3bd ef19 8fbe 9b16 483d a42c 753e
000003d0: 8882 d43d f34e 5b3e c109 643c 58e2 9abe
000003e0: 70ca 4abe c460 993e c411 543e 11ac 49be
000003f0: 61d8 ecbd 1c68 ddbd 5027 e1bb 03a6 193c

fc1.bias f4 [43]
0.06250723 0.12968656 0.25960165 0.10352103 -0.20181337 -0.09108307 -0.14476621 0.34790072
0.055728108 -0.42790252 -0.48286554 -0.22629724 -0.26714793 0.4706487 -0.37718403 0.27642658
0.096027374 0.05308091 -0.14417697 0.25358236 0.3867634 -0.042315822 0.44161248 -0.12752578
0.20064676 -0.027402667 0.19340642 -0.43730068 -0.039644405 0.27886528 -0.24041991 0.18087737
0.10101364 0.0232138 0.20741376 -0.0063515585 0.19031546 -0.092526086 -0.13788517 -0.16620815
0.3934973 -0.0029235433 -0.39523128
00000000: ca03 803d 8ecc 043e 82ea 843e d502 d43d
00000010: 2aa8 4ebe c389 babd 983d 14be 0b20 b23e
00000020: 2843 643d 0a16 dbbe 273a f7be 77ba 67be
00000030: 9dc7 88be def8 f03e 441e c1be c987 8d3e
00000040: 00aa c43d 5e6b 593d 21a3 13be 8cd5 813e
00000050: da05 c63e 5b53 2dbd 081b e23e 1e96 02be
00000060: 5876 4d3e 8f7b e0bc 550c 463e e0e5 dfbe
00000070: 2c62 22bd 6ec7 8e3e a330 76be eb37 393e
00000080: 3de0 ce3d de2a be3c 4664 543e bc20 d0bb
00000090: 0ee2 423e 517e bdbd c531 0dbe 7832 2abe
000000a0: 7a78 c93e eb98 3fbb c15b cabe

fc2.weight f4 [29, 43]
-0.18936871 0.2648203 0.19829616 0.21875049 -0.2960169 -0.21161968 -0.13144854 0.2952336
-0.050162915 -0.10296292 -0.12439423 -0.11642873 0.12849392 0.13428453 -0.11660763 0.21674582
-0.22119354 0.20462392 0.18694133 0.07725471 0.17945787 -0.05767864 0.048897326 0.04453941
-0.18580465 -0.22545393 0.22953945 -0.19639865 -0.16030464 0.10325409 -0.20134233 0.052574325
-0.0738922 0.20554319 0.27505156 0.010122246 0.17046206 -0.06299629 -0.23482746 0.078408554
0.21755877 -0.3356464 -0.08052569 0.25780284 0.3360581 0.05556553 -0.16513835 -0.022945361
-0.10520484 -0.15188551 -0.03654203 0.20160481 -0.15842283 -0.27886045 0.056401707 0.108332574
-0.24744149 -0.39523426 -0.20814006 0.15583237 -0.03055056 -0.017883169 0.11088328 -0.3360806
-0.065549575 0.31486666 -0.11892573 0.24347837 0.2767073 -0.077436976 -0.3021281 0.072767235
0.28358862 -0.045576517 0.4345066 0.13406494 0.028796671 0.019485487 -0.11455864 0.3342611
0.08107536 -0.2840348 -0.09006359 0.3493578 0.025044981 -0.26919594 0.24244347 0.16304329
0.14510691 0.31655613 0.38275328 0.16429788 -0.21042751 -0.14886251 0.25075433 0.19851887
0.08357632 0.3115402 -0.08410417 -0.06345913 -0.1399797 -0.18011664 -0.30930594 -0.15074365
0.15445131 -0.2814577 0.16702488 0.025110776 -0.086394705 0.17678069 -0.16741486 0.32031503
-0.18359132 -0.25161108 -0.23106396 -0.29370192 -0.052474048 0.25726566 -0.19858366 0.31984177
-0.2895542 0.11990365 0.04286226 -0.14254041 0.20551167 0.14302666 -0.09461441 0.20276847
-0.06806823 -0.32122466 -0.1733313 0.12576461 0.13104004 -0.009737013 0.12689406 0.47812307
-0.0066154753 -0.28377646 0.23949914 0.15946263 -0.26468188 0.10077039 -0.18668504 0.09111306
-0.17149717 -0.2798391 -0.16345769 0.087393604 -0.00972693 -0.22837053 0.08424436 -0.3404793
0.13260658 -0.20197667 -0.10618605 -0.151151 -0.14609283 -0.17287734 -0.15666431 -0.08004372
-0.17748106 -0.32291365 0.21464142 0.07431483 0.04990179 0.038827468 0.00591098 0.15977369
0.2780065 -0.18595737 -0.24711114 -0.0953851 -0.16799374 -0.13665125 -0.21337993 -0.23537888
-0.047631342 -0.28254673 0.13202268 0.01763661 -0.14562048 -0.13092253 0.024235895 -0.28129536
0.10708602 0.014012333 0.2268495 -0.2385827 0.22489946 0.2596028 0.065062396 0.032891337
0.19659504 0.27459097 0.12550992 -0.16062087 -0.2036034 0.15146944 0.1355249 -0.19095065
0.1453457 -0.2252944 -0.024655873 -0.03964692 0.23734105 -0.0726587 -0.25822854 -0.1545994
0.287643 0.26990566 -0.09917719 -0.18757801 -0.18928672 0.08024636 0.053226274 0.18559502
0.3709834 0.108955234 -0.17703778 0.14435773 0.06791661 -0.24723011 0.0128556695 0.3505764
0.05669935 0.34584025 -0.15321365 -0.33817583 -0.008417937 -0.2234192 0.118094146 0.20015664
-0.1553286 -0.11335352 0.34325168 -0.017430952 -0.0066452934 -0.17650995 -0.076048926 -0.024030797
-0.12644646 -0.165102 0.029903105 0.39292943 -0.06317935 0.07456315 -0.08682004 -0.15656975
-0.21701306 0.1515511 -0.0036356638 0.19110838 -0.14817718 0.17098269 -0.26893187 0.28254175
00000000: dfe9 41be 8796 873e 260e 4b3e 2100 603e
00000010: 878f 97be d4b2 58be 729a 06be dc28 973e
00000020: a177 4dbd 39de d2bd 67c2 febd 3072 eebd
00000030: e993 033e e281 093e fbcf eebd 9ef2 5d3e
00000040: 8f80 62be ef88 513e 8c6d 3f3e b837 9e3d
00000050: cec3 373e 7040 6cbd 9048 483d f56e 363d
00000060: 9343 3ebe 65dd 66be 640c 6b3e ba1c 49be
00000070: e626 24be e176 d33d af2c 4ebe 2d58 573d
00000080: cb54 97bd ea79 523e 8fd3 8c3e c7d7 253c
00000090: 9b8d 2e3e 3304 81bd 9c76 70be aa94 a03d
000000a0: bac7 5e3e d8d9 abbe a7ea a4bd bcfe 833e
000000b0: cf0f ac3e ae98 633d 071a 29be e9f7 bbbc
000000c0: a375 d7bd e087 1bbe 18ad 15bd 7e71 4e3e
000000d0: 9839 22be ccc6 8ebe 7a05 673d 78dd dd3d
000000e0: 4d61 7dbe 255c cabe ab22 55be 8592 1f3e
000000f0: 2b45 fabc b97f 92bc c616 e33d c212 acbe
00000100: db3e 86bd 3436 a13e 558f f3bd 6552 793e
00000110: 94ac 8d3e 4797 9ebd 89b0 9abe fd06 953d
00000120: 8732 913e 71ae 3abd a677 de3e 5248 093e
00000130: ffe6 eb3c 07a0 9f3c b89d eabd 4524 ab3e
00000140: d70a a63d 026d 91be 4273 b8bd 07df b23e
00000150: 222b cd3c 0dd4 89be 1a43 783e d2f4 263e
00000160: e896 143e a513 a23e 3df8 c33e b43d 283e
00000170: 4f7a 57be 6a6f 18be df62 803e 8848 4b3e
00000180: 102a ab3d 3282 9f3e cf3e acbd dcf6 81bd
00000190: d756 0fbe 7f70 38be 595d 9ebe 8b5c 1abe
000001a0: 7c28 1e3e 391b 90be 9208 2b3e 1db5 cd3c
000001b0: b5ef b0bd ff05 353e cd6e 2bbe 5500 a43e
000001c0: 5dff 3bbe 2bd3 80be 089c 6cbe 1960 96be
000001d0: 07ef 56bd 53b8 833e 8459 4bbe 4dc2 a33e
000001e0: 7340 94be 0b90 f53d 5690 2f3d 1df6 11be
000001f0: a771 523e 9575 123e 33c5 c1bd 8aa2 4f3e
00000200: 5b67 8bbd 8f77 a4be c37d 31be 70c8 003e
00000210: 5c2f 063e fe87 1fbc 84f0 013e 8ccc f43e
00000220: a1c6 d8bb 264b 91be 433f 753e 2c4a 233e
00000230: 6284 87be b560 ce3d 5d2a 3fbe 7c99 ba3d
00000240: f49c 2fbe 1247 8fbe 7461 27be 6bfb b23d
00000250: b45d 1fbc f7d9 69be 4f88 ac3d 4e53 aebe
00000260: 05ca 073e f9d2 4ebe 1278 d9bd 54c7 1abe
00000270: 5c99 15be c206 31be 9c6c 20be f6ed a3bd
00000280: 98bd 35be f054 a5be f6ca 5b3e 6032 983d
00000290: d265 4c3d 8d09 1f3d e5b0 c13b b79b 233e
000002a0: de56 8e3e 9c6b 3ebe b40a 7dbe 4359 c3bd
000002b0: 8d06 2cbe 4eee 0bbe 4580 5abe 2907 71be
000002c0: 1519 43bd f7a9 90be f430 073e a77a 903c
000002d0: 891d 15be 8e10 06be 5b8a c63c f205 90be
000002e0: ea4f db3d fc93 653c 3c4b 683e 064f 74be
000002f0: 0b4c 663e a8ea 843e 6f3f 853d 11b9 063d
00000300: 3650 493e 3097 8c3e ac85 003e cc79 24be
00000310: 697d 50be ce1a 1b3e 0ac7 0a3e 9188 43be
00000320: 81d5 143e 93b3 66be 1dfb c9bc cf64 22bd
00000330: 8809 733e 16ce 94bd 8836 84be 4e4f 1ebe
00000340: f145 933e 1331 8a3e 691d cbbd 7314 40be
00000350: 61d4 41be 3458 a43d cb03 5a3d 9f0c 3e3e
00000360: 89f1 bd3e ec23 df3d 6449 35be 83d2 133e
00000370: dd17 8b3d e429 7dbe 96a0 523c c07e b33e
00000380: 943d 683d f911 b13e 0ae4 1cbe 6225 adbe
00000390: 63eb 09bc 01c8 64be 58db f13d ddf5 4c3e
000003a0: 760e 1fbe e425 e8bd afbe af3e 5bcb 8ebc
000003b0: c3c0 d9bb 06bf 34be 8abf 9bbd 3cdc c4bc
000003c0: 2e7b 01be 8010 29be 5bf7 f43c 0c2e c93e
000003d0: 2d64 81bd 91b4 983d b5ce b1bd d253 20be
000003e0: ac38 5ebe 3630 1b3e 5144 6ebb eab1 433e
000003f0: c2bb 17be 1616 2f3e 70b1 89be 50a9 903e

fc2.bias f4 [29]
0.111767605 0.32491976 -0.13456723 -0.11272885 0.22855544 0.1815045 0.018678516 0.29045418
-0.13887736 -0.11847601 0.014532965 0.080758706 0.2716111 0.22845463 0.31203938 0.023818154
-0.11851977 0.16690701 -0.031828836 -0.17897025 -0.33959678 0.20513766 0.21919537 -0.34273857
0.041174274 -0.028346427 -0.23385514 -0.06675257 -0.042077903
00000000: 6ae6 e43d e25b a63e fecb 09be 62de e6bd
00000010: 700a 6a3e 51dc 393e b003 993c 69b6 943e
00000020: de35 0ebe 8da3 f2bd ac1b 6e3c d264 a53d
00000030: 9c10 8b3e 03f0 693e a0c3 9f3e 4a1e c33c
00000040: 7eba f2bd ace9 2a3e f45e 02bd fa43 37be
00000050: a1df adbe 9b0f 523e c074 603e 6e7b afbe
00000060: 5ba6 283d c436 e8bc b977 6fbe 92b5 88bd
00000070: e159 2cbd

fc_value.weight f4 [11, 29]
0.37575582 0.24701996 0.01635797 -0.29085636 0.29184127 0.42927173 -0.2844277 0.48899752
-0.18494965 0.028864413 0.1872889 0.3246665 0.22850624 0.47237697 -0.11221788 -0.20157467
-0.051890995 0.31021646 0.085402325 -0.55966634 -0.5040621 -0.230057 0.398106 -0.10705417
-0.06629744 -0.16513789 -0.51580524 -0.26683834 0.09748071 -0.3193074 -0.5462154 -0.06656983
0.052673403 -0.34445927 -0.30630141 0.5162786 0.03816576 0.29828915 -0.096714295 0.29656938
0.10815128 -0.22371583 0.08248247 -0.16938677 -0.2950497 0.09401061 -0.14223784 -0.005599935
0.3299541 0.3471075 -0.279658 -0.14403617 0.4224915 -0.30543855 0.0529205 0.21767332
-0.30500638 -0.08033993 0.3798869 0.0052475636 -0.26623443 -0.4578112 -0.2782752 -0.1462151
-0.5713139 0.5064968 -0.10030098 -0.2621903 0.41774118 0.383555 -0.028695911 0.14332698
0.59706295 -0.19645213 -0.30165717 -0.109556444 0.21480905 -0.19245604 -0.5760177 -0.20776317
0.04477887 -0.50725543 0.31725705 0.029093992 -0.04789793 0.19012535 0.111577034 0.12354566
0.5359627 0.24509314 -0.0822691 0.07141344 0.1926469 -0.22219676 -0.06610132 -0.4436212
0.26159188 -0.14828831 0.19083697 0.23254628 0.38536662 0.02453162 -0.14967772 -0.24744073
0.5148641 0.30406493 -0.35721967 -0.16198708 -0.038700588 0.044076853 -0.46176708 0.40325058
0.2861979 -0.17211716 0.31383532 0.06658145 0.20728177 0.13947059 -0.030493092 -0.47082552
-0.17096728 0.30905065 -0.39587218 0.35964242 -0.22107786 -0.19992335 0.24872598 -0.14387701
0.22131623 0.447206 0.29140627 0.2284872 -0.33795524 0.26811686 -0.36087692 -0.17399494
0.026314193 -0.104698405 -0.15881613 -0.4138141 -0.027891366 -0.07167695 -0.073266424 -0.25839776
-0.27615798 0.06886895 -0.526526 0.30598697 0.36324844 -0.049417797 -0.31413144 0.15549533
-0.507348 0.4429738 -0.3473592 -0.37248236 -0.28569868 0.22529428 -0.17266005 -0.031043733
-0.20586117 0.22416845 -0.37128645 0.19947973 0.29358074 0.59006876 -0.0073984214 0.31580716
0.23923527 0.18934044 0.060791835 0.07876032 0.12761535 -0.15898158 0.23137432 0.12645836
-0.18114315 -0.32618994 -0.027964482 0.13459438 -0.4471829 0.40138054 -0.04655734 0.07331932
0.13724646 0.1369251 0.035243157 0.26369387 0.10266395 0.12584767 0.20735455 0.12439481
-0.271757 0.07462547 -0.45275626 -0.024029685 0.2891181 -0.22747198 0.115854934 0.34675512
-0.38822538 0.1436004 -0.21743107 0.31346923 0.42384794 0.16440439 -0.13985361 0.034682177
-0.021506876 -0.1325697 0.16231088 -0.110965125 -0.012857033 0.18191071 0.41096786 0.25628987
0.100239515 0.6250447 -0.14614995 -0.40244037 0.42709398 -0.044680372 -0.50659704 -0.68106323
-0.08001787 0.21101248 -0.08088224 0.16479097 0.3328529 -0.4139055 -0.23407087 0.0065067993
0.37469965 0.45906672 0.25593078 -0.35532594 -0.17834373 -0.047357727 0.006493337 -0.00085748546
-0.0033975067 -0.19310863 0.18521442 0.43574607 0.37644854 0.18910591 0.52746755 0.26992333
-0.49419782 0.32142895 -0.046538197 -0.22767745 -0.4109068 0.019243851 0.19708934 -0.13538139
00000000: 1163 c03e cdf2 7c3e 2601 863c 20eb 94be
00000010: 386c 953e 81c9 db3e 82a0 91be e25d fa3e
00000020: 7163 3dbe 1075 ec3c a9c8 3f3e b03a a63e
00000030: 8afd 693e 65db f13e 7dd2 e5bd 9769 4ebe
00000040: a78b 54bd b1d4 9e3e 6ae7 ae3d 4b46 0fbf
00000050: 370a 01bf 1094 6bbe 8dd4 cb3e 373f dbbd
00000060: f4c6 87bd e819 29be d00b 04bf 099f 88be
00000070: f7a3 c73d 427c a3be c6d4 0bbf c355 88bd
00000080: 11c0 573d f75c b0be 8ad3 9cbe d62a 043f
00000090: b353 1c3d 5bb9 983e 2512 c6bd f1d7 973e
000000a0: 6b7e dd3d c315 65be 92ec a83d ba73 2dbe
000000b0: c110 97be a288 c03d cca6 11be a97f b7bb
000000c0: beef a83e 13b8 b13e 552f 8fbe 387e 13be
000000d0: ce50 d83e 7162 9cbe 2bc3 583d c1e5 5e3e
000000e0: cc29 9cbe 4389 a4bd 8980 c23e c1f3 ab3b
000000f0: e14f 88be 3b66 eabe 167a 8ebe 69b9 15be
00000100: a141 12bf c6a9 013f 9a6a cdbd cf3d 86be
00000110: 2ce2 d53e 5261 c43e b013 ebbc 4fc4 123e
00000120: 1ed9 183f bf2a 49be cf72 9abe 215f e0bd
00000130: e7f6 5b3e 3213 45be e575 13bf debf 54be
00000140: 0c6a 373d 7edb 01bf 846f a23e 8656 ee3c
00000150: 9f30 44bd 38b0 423e 8082 e43d 8205 fd3d
00000160: da34 093f b2f9 7a3e b47c a8bd 3641 923d
00000170: 3b45 453e 8c87 63be 2160 87bd 5122 e3be
00000180: 5fef 853e e4d8 17be c46a 433e 9d20 6e3e
00000190: c64e c53e 89f6 c83c 1e45 19be 1a61 7dbe
000001a0: 22ce 033f 66ae 9b3e 7fe5 b6be f1df 25be
000001b0: 8284 1ebd ee89 343d bc6c ecbe dc76 ce3e
000001c0: 8888 923e 7b3f 30be 06af a03e db5b 883d
000001d0: ac41 543e 61d1 0e3e a6cc f9bc 0b10 f1be
000001e0: 0c12 2fbe e33b 9e3e c2af cabe 0d23 b83e
000001f0: 3c62 62be b5b8 4cbe 06b2 7e3e 7f54 13be
00000200: b9a0 623e 2ff8 e43e 3433 953e 8cf8 693e
00000210: 7808 adbe 9d46 893e dcc4 b8be bb2b 32be
00000220: dd90 d73c 1e6c d6bd b2a0 22be 71df d3be
00000230: 6f7c e4bc 5dcb 92bd b50c 96bd b64c 84be
00000240: 9464 8dbe 2a0b 8d3d 68ca 06bf 53aa 9c3e
00000250: b3fb b93e 516a 4abd d6d5 a0be 2b3a 1f3e
00000260: 8fe1 01bf 76cd e23e 11d9 b1be 02b6 bebe
00000270: 1947 92be 8bb3 663e cccd 30be 6d4f febc
00000280: 45cd 52be 6a8c 653e 4219 bebe 6a44 4c3e
00000290: 3750 963e bf0e 173f 756e f2bb 7ab1 a13e
000002a0: 17fa 743e 76e2 413e dc00 793d 174d a13d
000002b0: 99ad 023e 11cc 22be 64ed 6c3e 4d7e 013e
000002c0: 977d 39be 5e02 a7be c515 e5bc 1cd3 093e
000002d0: 28f5 e4be c081 cd3e e9b2 3ebd 7128 963d
000002e0: 568a 0c3e 1836 0c3e 215b 103d e202 873e
000002f0: 7a41 d23d 36de 003e c054 543e b5c2 fe3d
00000300: bc23 8bbe 3dd5 983d abcf e7be e7d9 c4bc
00000310: 4a07 943e 6aee 68be 5a45 ed3d e389 b13e
00000320: 7ac5 c6be fc0b 133e 40a6 5ebe 0a7f a03e
00000330: 9902 d93e a059 283e c935 0fbe e60e 0e3d
00000340: 302f b0bc 5ac0 07be d334 263e af41 e3bd
00000350: 4ea6 52bc cd46 3a3e 616a d23e 6d38 833e
00000360: 604a cd3d ee02 203f 55a8 15be aa0c cebe
00000370: 10ac da3e c402 37bd 58b0 01bf 295a 2ebf
00000380: 69e0 a3bd a813 583e 96a5 a5bd f7be 283e
00000390: b26b aa3e 6ceb d3be 46b0 6fbe fd36 d53b
000003a0: a2d8 bf3e cb0a eb3e 5c09 833e 48ed b5be
000003b0: bd9f 36be 2dfa 41bd 0fc6 d43b e0c8 60ba
000003c0: b4a8 5ebb 45be 45be d9a8 3d3e 1c1a df3e
000003d0: ddbd c03e fba4 413e 1d08 073f 6433 8a3e
000003e0: 7f07 fdbe 5692 a43e d69e 3ebd 4724 69be
000003f0: 6062 d2be 48a5 9d3c cad1 493e 6ba1 0abe

fc_value.bias f4 [11]
0.118788294 -0.14956278 0.3265241 0.303037 0.4095212 -0.21878067 0.20787027 0.42617753
0.30419615 -0.27692616 -0.16040082
00000000: 4747 f33d fc26 19be 2b2e a73e aa27 9b3e
00000010: c3ac d13e 0a08 60be f2db 543e f133 da3e
00000020: 99bf 9b3e 44c9 8dbe 1d40 24be

fc_adv.weight f4 [13, 29]
-0.32469073 0.45476508 -0.010960118 0.30632022 -0.24022536 0.37750903 -0.15095103 -0.23924601
0.22877963 -0.26106778 0.009782481 -0.09527999 -0.27265385 0.23970148 0.08477528 -0.15051284
0.2226442 0.50477743 0.02009345 0.16384189 0.18066217 -0.2787707 0.315949 0.040026397
-0.4092758 -0.57292473 0.07339118 -0.1494572 -0.37356123 0.30820483 0.008523754 0.39922974
0.45208436 0.10284119 -0.29211566 0.27540302 0.226909 0.09048342 0.5086644 -0.12346007
-0.25728288 -0.5138166 0.3301038 0.17099456 -0.13202892 -0.094152495 0.2782079 0.14280652
0.21887514 0.30122218 -0.36885452 -0.18411948 0.25909993 0.21749899 -0.10626605 -0.11620112
0.35071117 -0.164059 -0.3125407 -0.12382929 0.24891312 -0.41584238 -0.39638945 -0.1780845
0.08447442 -0.10532653 -0.46276042 0.076927125 -0.42368367 0.2127553 0.27015427 -0.016234487
0.26491255 0.4038633 0.31431824 0.06973405 -0.038919512 -0.0030039453 0.24577121 0.25691348
-0.14112313 0.15418501 0.2570251 0.3262466 0.3194496 -0.35911784 0.21382171 -0.0819264
-0.33491704 -0.1203247 0.3579507 -0.20312202 -0.059738092 -0.17841674 0.2876806 0.11716022
0.109914266 -0.37916747 0.41503415 -0.10802455 -0.039942544 -0.33530098 0.5568981 -0.059148304
-0.12629294 -0.21130338 -0.06442328 -0.34210527 -0.5096487 0.0005405255 -0.3216983 0.4188537
0.006524202 0.117484115 -0.017542563 0.1350309 0.21916369 0.3734013 -0.39370152 -0.34722152
0.28184915 0.31421086 0.3990476 -0.17543432 -0.19138108 -0.35174054 0.16108705 -0.03190209
0.34498614 -0.36744538 0.024409847 0.09099055 0.31410402 -0.37286082 -0.30455333 -0.20577519
-0.18722135 0.33953837 0.1594675 0.2089103 0.1835269 -0.07774331 -0.07450503 -0.2768899
0.51814795 0.45601547 -0.013597817 0.08432534 -0.26407936 0.43801728 -0.12851188 0.22642748
0.39082953 0.4071089 0.48202926 -0.13674182 0.11005825 0.13186492 0.3752685 0.05929026
0.122021854 -0.35259393 -0.15432496 -0.35964173 -0.07810547 -0.074590825 0.005604513 -0.19777733
0.22037743 0.29103932 0.23351936 0.18004921 0.5417551 -0.17003818 0.29997072 -0.12211305
-0.14204544 -0.19297785 0.28469297 -0.29451278 0.32664388 -0.28947556 0.08207772 -0.030330967
-0.25246346 -0.34760806 -0.123420216 0.3832468 0.12360252 0.32897574 0.2893619 0.36415043
-0.103403635 -0.18366306 -0.06020483 -0.35077748 0.40993726 -0.27860954 0.23668237 -0.3410362
0.2882706 0.10847357 0.26384652 -0.21906635 0.06991128 -0.10723785 -0.0891015 0.01934607
0.29767245 -0.21699165 -0.47329265 -0.28251392 -0.39046112 -0.32165274 0.21901657 0.41348884
0.18602346 0.26699105 -0.339313 -0.32485276 -0.021758152 0.13688317 -0.18044434 0.48419368
-0.12396905 -0.45053834 0.019651625 -0.05067258 -0.046919428 0.041891485 0.22456183 -0.018102733
0.30451694 -0.23726086 -0.1507662 -0.33249176 0.14949675 -0.4041907 0.19310696 -0.14128852
0.3592945 0.019763244 0.3308974 0.02664182 0.2887657 0.14856926 0.0056727733 -0.25928032
-0.55034405 -0.0045364965 -0.2494719 -0.45367858 0.05156474 -0.14823627 -0.4796649 0.02277231
00000000: dd3d a6be f8d6 e83e 1192 33bc 01d6 9c3e
00000010: a3fd 75be dd48 c13e e892 1abe e8fc 74be
00000020: 3545 6a3e adaa 85be b346 203c 2822 c3bd
00000030: 4999 8bbe 4e74 753e a99e ad3d 0a20 1abe
00000040: d7fc 633e 1839 013f 059b a43c 2bc6 273e
00000050: 81ff 383e 08bb 8ebe 11c4 a13e b8f2 233d
00000060: 998c d1be 32ab 12bf 1d4e 963d 4f0b 19be
00000070: 6b43 bfbe 06cd 9d3e 37a7 0b3c d767 cc3e
00000080: 9a77 e73e 679e d23d 2f90 95be a001 8d3e
00000090: d55a 683e 5f4f b93d d537 023f a2d8 fcbd
000000a0: 95ba 83be 7c89 03bf 5e03 a93e 3319 2f3e
000000b0: 9732 07be 06d3 c0bd 4471 8e3e df3b 123e
000000c0: ce20 603e cb39 9a3e 80da bcbe d189 3cbe
000000d0: bfa8 843e 0eb8 5e3e 04a2 d9bd dafa edbd
000000e0: 6a90 b33e 15ff 27be 5605 a0be 369a fdbd
000000f0: 15e3 7e3e 4be9 d4be 8ff3 cabe c85b 36be
00000100: ed00 ad3d 70b5 d7bd efee ecbe f88b 9d3d
00000110: 11ed d8be 86dc 593e a951 8a3e 30fe 84bc
00000120: 9ea2 873e 2cc7 ce3e 52ee a03e bad0 8e3d
00000130: 116a 1fbd d7dd 44bb 73ab 7b3e 2a8a 833e
00000140: 9582 10be ade2 1d3e cb98 833e cb09 a73e
00000150: e68e a33e 4bde b7be 14f4 5a3e 07c9 a7bd
00000160: 3f7a abbe cc6c f6bd 5045 b73e 38ff 4fbe
00000170: eeaf 74bd e1b2 36be df4a 933e b3f1 ef3d
00000180: bb1a e13d 3d22 c2be 5b7f d43e fa3b ddbd
00000190: cb9a 23bd 92ac abbe e090 0e3f 7e45 72bd
000001a0: f052 01be ea5f 58be 5af0 83bd 6c28 afbe
000001b0: 5678 02bf 0db2 0d3a a4b5 a4be fe73 d63e
000001c0: f9c8 d53b 839b f03d 6cb5 8fbc 8a45 0a3e
000001d0: 726c 603e 752e bf3e 3f93 c9be 05c7 b1be
000001e0: 884e 903e 3fe0 a03e f84f cc3e 0ea5 33be
000001f0: 67f9 43be 5617 b4be 01f4 243e c4ab 02bd
00000200: 06a2 b03e cd21 bcbe 29f7 c73c 4159 ba3d
00000210: 3ed2 a03e 9de7 bebe 6aee 9bbe bbb6 52be
00000220: f4b6 3fbe f9d7 ad3e 734b 233e 95ec 553e
00000230: 7aee 3b3e e237 9fbd 1896 98bd 83c4 8dbe
00000240: 58a5 043f dc7a e93e 61c9 5ebc c4b2 ac3d
00000250: 6935 87be cd43 e03e 9e98 03be 9bdc 673e
00000260: cf1a c83e 9470 d03e 8acc f63e 0c06 0cbe
00000270: 3866 e13d 9907 073e 3123 c03e 58da 723d
00000280: 98e6 f93d 3187 b4be 5d07 1ebe f622 b8be
00000290: c3f5 9fbd 13c3 98bd 10a6 b73b 2486 4abe
000002a0: 9faa 613e 1b03 953e b31f 6f3e d25e 383e
000002b0: 76b0 0a3f 7d1e 2ebe c395 993e 6816 fabd
000002c0: 5c74 11be fc9b 45be 47c3 913e 61ca 96be
000002d0: de3d a73e 2436 94be 5d18 a83d a678 f8bc
000002e0: e442 81be aff9 b1be bdc3 fcbd ed38 c43e
000002f0: 5123 fd3d 826f a83e 3e27 943e ed71 ba3e
00000300: 49c5 d3bd 2b12 3cbe 5799 76bd 1b99 b3be
00000310: 4ce3 d13e e9a5 8ebe dd5c 723e 4c9c aebe
00000320: 3498 933e 6427 de3d e416 873e ee52 60be
00000330: a52d 8f3d 859f dbbd d97a b6bd a67b 9e3c
00000340: 8668 983e 0f33 5ebe 6a53 f2be aaa5 90be
00000350: 85ea c7be abaf a4be e145 603e cfb4 d33e
00000360: ef7c 3e3e 0db3 883e 6fba adbe 1a53 a6be
00000370: 273e b2bc 1a2b 0c3e 67c6 38be 3ce8 f73e
00000380: 7ce3 fdbd f6ac e6be 72fc a03c 0d8e 4fbd
00000390: 962e 40bd 6896 2b3d 89f3 653e 2f4c 94bc
000003a0: a5e9 9b3e 83f4 72be 7462 1abe 5c3c aabe
000003b0: ad15 193e 15f2 cebe d5bd 453e f0ad 10be
000003c0: 73f5 b73e 87e6 a13c 626b a93e f23f da3c
000003d0: 19d9 933e 8a22 183e ace2 b93b 64c0 84be
000003e0: 59e3 0cbf e4a6 94bb 9075 7fbe 8f48 e8be
000003f0: 8c35 533d 40cb 17be a396 f5be ff8c ba3c

fc_adv.bias f4 [13]
-0.08837021 -0.08587047 0.22458091 -0.12425866 0.097557604 0.29390544 0.10702535 -0.08768027
-0.13181356 -0.11419192 -0.08797731 0.074644476 0.11862591
00000000: 71fb b4bd dbdc afbd 8af8 653e 537b febd
00000010: 48cc c73d c67a 963e 1b30 db3d b791 b3bd
00000020: 22fa 06be 74dd e9bd 732d b4bd 34df 983d
00000030: 24f2 f23d

value.weight f4 [1, 11]
0.9327369 -1.0634415 0.62328 0.69895107 0.4033228 -0.693275 0.72476363 0.35444722
0.6629881 -0.6261992 -0.5862445
00000000: d8c7 6e3f da1e 88bf 478f 1f3f 75ee 323f
00000010: 5380 ce3e 787a 31bf 1c8a 393f 1b7a b53e
00000020: 97b9 293f 974e 20bf 1f14 16bf

adv.weight f4 [5, 13]
-0.5860993 -0.22949924 0.4121504 -0.024117028 -0.3637287 -0.089892976 -0.33064887 0.14855582
0.06860232 -0.71270406 -0.24810553 0.12698543 -0.24124911 -0.43535239 -0.399163 -0.30138826
-0.311311 0.7857574 0.67154473 -0.8452444 0.8339324 0.30161035 -0.27629188 -0.8013334
0.44384727 -0.74093956 0.17098832 0.8080311 -0.54631907 0.8434296 -0.855341 0.2255623
-0.088687524 -0.10437666 -0.13353975 0.47284102 0.6367214 -0.42881447 0.62409985 -0.075913705
0.07432184 0.67111397 0.58306295 0.16307233 0.22098808 0.59663254 -0.22432974 -0.11622619
0.7254758 0.0016999509 -0.6206299 0.49525386 0.47335684 -0.44428632 0.30387142 -0.42791244
0.714742 -0.89721537 -0.28958017 0.43001175 -0.3049863 -0.19359319 -0.10293697 0.050650217
0.72448885
00000000: 9b0a 16bf d901 6bbe 6105 d33e 1391 c5bc
00000010: a63a babe cf19 b8bd cf4a a9be 041f 183e
00000020: 607f 8c3d c673 36bf 600f 7ebe 7808 023e
00000030: 020a 77be 82e6 debe 185f ccbe 904f 9abe
00000040: 2864 9fbe 6627 493f 5bea 2b3f f061 58bf
00000050: 987c 553f ac6c 9a3e 2176 8dbe 3024 4dbf
00000060: f33f e33e 37ae 3dbf 9017 2f3e 20db 4e3f
00000070: 91db 0bbf 01eb 573f a1f7 5abf cef9 663e
00000080: cea1 b5bd 6ec3 d5bd a5be 08be 3818 f23e
00000090: 2c00 233f 928d dbbe 02c5 1f3f a578 9bbd
000000a0: 0d36 983d 20ce 2b3f 9d43 153f 6ffc 263e
000000b0: b34a 623e e9bc 183f b2b6 65be ff07 eebd
000000c0: c8b8 393f e3d0 de3a 9ae1 1ebf ea91 fd3e
000000d0: d45b f23e 7f79 e3be 0995 9b3e 5717 dbbe
000000e0: 55f9 363f e8af 65bf da43 94be 802a dc3e
000000f0: 2a27 9cbe 4b3d 46be 9ed0 d2bd 9a76 4f3d
00000100: 1a78 393f

adv.bias f4 [5]
-0.024102798 0.17688227 0.005860529 0.21077459 -0.09658151
00000000: 3b73 c5bc a020 353e ae09 c03b 4bd5 573e
00000010: 87cc c5bd

exp_avg f4 [43, 37]
0.0012777155 -0.063036256 0.01752521 0.013613762 -0.03487874 0.0 0.0 0.0
0.0 0.0 0.0 -0.016879851 0.09522715 -0.020579726 -0.077451944 0.0
0.008884435 0.030197177 0.051946204 -0.036963966 0.0 -8.937503e-05 -0.00021953235 8.937503e-05
0.00031150924 0.008186321 0.0 -7.7520905e-09 0.0 -0.02042429 0.00021953235 0.029737446
0.0 0.0 -0.039247237 -0.0029461223 -0.013404544 -0.0033375258 -0.08573274 -0.046227615
-0.035565566 -0.033343263 0.0 0.0 0.0 0.0 0.0 0.0
0.012582561 0.030487372 -0.06511177 -0.05349214 0.0 -0.011749166 0.01328649 0.02179805
-0.0052243597 0.0 -3.388051e-06 -8.321855e-06 3.388051e-06 1.1808515e-05 0.030492732 0.0
2.6119311e-09 0.0 -0.03711124 8.321853e-06 0.004060324 0.0 0.0 0.04696347
0.025519883 -0.009403084 -0.001842947 -0.05260231 0.04191795 -0.00949131 -0.012606108 0.0
0.0 0.0 0.0 0.0 0.0 0.019820156 0.033416606 -0.017444102
-0.0123601975 0.0 -0.0046343375 0.014475974 -0.0857817 0.006595893 0.0 -0.00019592719
-0.000481301 0.00019592715 0.0006829349 0.029204093 0.0 -1.692287e-08 0.0 0.1266609
0.000481301 0.015988192 0.0 0.0 -0.053271372 -0.12025472 -0.02402116 0.00053432764
-0.0047434103 -0.07286521 0.026382843 -0.016390873 0.0 0.0 0.0 0.0
0.0 0.0 0.03804336 -0.017251244 -0.006796428 0.024954727 0.0 -0.0025792178
0.018775703 -0.01520505 -0.008890341 0.0 -0.0001971067 -0.00048415767 0.0001971067 0.00068700267
-0.0019038895 0.0 3.3121066e-09 0.0 0.017155359 0.00048415767 -0.054931175 0.0
0.0 0.05093633 -0.017860139 -0.067284286 0.00028749005 0.014043972 0.027251665 -0.01841261
0.01403304 0.0 0.0 0.0 0.0 0.0 0.0 0.042680588
0.0019246273 -0.07577621 -0.10017344 0.0 0.01819456 -0.011788543 0.14390256 -0.010255952
0.0 -8.898107e-05 -0.00021856475 8.898107e-05 0.00031013618 -0.0045402544 0.0 2.5716307e-09
0.0 -0.1536998 0.00021856475 0.025775325 0.0 0.0 -0.004992212 0.06707266
0.004495716 0.0008775529 0.06309868 -0.0050666155 0.030440433 0.005826855 0.0 0.0
0.0 0.0 0.0 0.0 0.026945006 -0.026104694 -0.017934358 -0.0051385732
0.0 0.009895084 -0.0010050342 0.05327295 -0.024681214 0.0 -0.00035349873 -0.0008683014
0.00035349873 0.0012320911 0.017816532 0.0 -8.82508e-09 0.0 -0.026458232 0.0008683014
-0.017654767 0.0 0.0 -0.0022907509 -0.06026082 -0.020399079 0.0014397666 0.1378171
0.06482996 -0.033378273 0.0111898035 0.0 0.0 0.0 0.0 0.0
0.0 -0.06271983 -0.04797961 0.026886292 0.026583262 0.0 -0.022150366 -0.019366352
-0.10868064 0.03699184 0.0 -0.0007385907 -0.0018142326 0.0007385907 0.0025743272 0.009006246
0.0 -2.024408e-08 0.0 0.09920318 0.0018142326 0.11579726 0.0 0.0
00000000: 0579 a73a 2719 81bd 0791 8f3c 420c 5f3c
00000010: 02dd 0ebd 0000 0000 0000 0000 0000 0000
00000020: 0000 0000 0000 0000 0000 0000 9d47 8abc
00000030: 7406 c33d d096 a8bc 209f 9ebd 0000 0000
00000040: 0590 113c 1260 f73c 8bc5 543d 8767 17bd
00000050: 0000 0000 db6e bbb8 4432 66b9 db6e bb38
00000060: 1052 a339 eb1f 063c 0000 0000 0e2e 05b2
00000070: 0000 0000 d750 a7bc 4432 6639 f29b f33c
00000080: 0000 0000 0000 0000 b6c1 20bd bb13 41bb
00000090: bc9e 5bbc 64ba 5abb a694 afbd 2b59 3dbd
000000a0: 33ad 11bd f292 08bd 0000 0000 0000 0000
000000b0: 0000 0000 0000 0000 0000 0000 0000 0000
000000c0: 1627 4e3c a7c0 f93c 5259 85bd 931a 5bbd
000000d0: 0000 0000 937f 40bc 94af 593c d391 b23c
000000e0: 1b31 abbb 0000 0000 465e 63b6 189e 0bb7
000000f0: 465e 6336 301d 4637 e5cb f93c 0000 0000
00000100: 947d 3331 0000 0000 f501 18bd 169e 0b37
00000110: 770c 853b 0000 0000 0000 0000 c45c 403d
00000120: 130f d13c 650f 1abc 0a8f f1ba 8575 57bd
00000130: 28b2 2b3d 7181 1bbc d989 4ebc 0000 0000
00000140: 0000 0000 0000 0000 0000 0000 0000 0000
00000150: 0000 0000 e15d a23c dadf 083d efe6 8ebc
00000160: 6d82 4abc 0000 0000 a4db 97bb a32c 6d3c
00000170: 51ae afbd 5c22 d83b 0000 0000 ce71 4db9
00000180: 2057 fcb9 cb71 4d39 fc06 333a 6c3d ef3c
00000190: 0000 0000 c95d 91b2 0000 0000 65b3 013e
000001a0: 2057 fc39 abf9 823c 0000 0000 0000 0000
000001b0: 1533 5abd 1b48 f6bd 06c8 c4bc 1f12 0c3a
000001c0: 9c6e 9bbb 5b3a 95bd d520 d83c 2746 86bc
000001d0: 0000 0000 0000 0000 0000 0000 0000 0000
000001e0: 0000 0000 0000 0000 5bd3 1b3d 7b52 8dbc
000001f0: 92b4 debb db6d cc3c 0000 0000 1808 29bb
00000200: 81cf 993c 9a1e 79bc cba8 11bc 0000 0000
00000210: 6dae 4eb9 8bd6 fdb9 6dae 4e39 f817 343a
00000220: ee8b f9ba 0000 0000 329b 6331 0000 0000
00000230: 6589 8c3c 8bd6 fd39 83ff 60bd 0000 0000
00000240: 0000 0000 9da2 503d 6d4f 92bc 58cc 89bd
00000250: 43ba 9639 b018 663c e23e df3c 0bd6 96bc
00000260: d6ea 653c 0000 0000 0000 0000 0000 0000
00000270: 0000 0000 0000 0000 0000 0000 d7d1 2e3d
00000280: c743 fc3a 8f30 9bbd bc27 cdbd 0000 0000
00000290: c20c 953c bc24 41bc 315b 133e 9508 28bc
000002a0: 0000 0000 599b bab8 872e 65b9 599b ba38
000002b0: c699 a239 6ac6 94bb 0000 0000 9bb8 3031
000002c0: 0000 0000 7b63 1dbe 872e 6539 c626 d33c
000002d0: 0000 0000 0000 0000 b695 a3bb 645d 893d
000002e0: cd50 933b 940b 663a e139 813d da05 a6bb
000002f0: 375e f93c 34ef be3b 0000 0000 0000 0000
00000300: 0000 0000 0000 0000 0000 0000 0000 0000
00000310: c6bb dc3c 83d9 d5bc 13eb 92bc 7a61 a8bb
00000320: 0000 0000 fe1e 223c 5abb 83ba bd34 5a3d
00000330: 4230 cabc 0000 0000 cc55 b9b9 b89e 63ba
00000340: cc55 b939 1e7e a13a faf3 913c 0000 0000
00000350: 1d9d 17b2 0000 0000 efbe d8bc b89e 633a
00000360: bba0 90bc 0000 0000 0000 0000 6c20 16bb
00000370: 0dd4 76bd f81b a7bc 8db6 bc3a ed1f 0d3e
00000380: 92c5 843d a8b7 08bd 7055 373c 0000 0000
00000390: 0000 0000 0000 0000 0000 0000 0000 0000
000003a0: 0000 0000 4173 80bd 4486 44bd a440 dc3c
000003b0: 24c5 d93c 0000 0000 af74 b5bc 2fa6 9ebc
000003c0: f593 debd c184 173d 0000 0000 fc9d 41ba
000003d0: 8bcb edba fc9d 413a 0bb6 283b ef8e 133c
000003e0: 0000 0000 34e5 adb2 0000 0000 092b cb3d
000003f0: 8bcb ed3a 1d27 ed3d 0000 0000 0000 0000

exp_avg_sq f4 [43, 37]
5.2683426e-06 0.0019703237 0.00097079127 0.0011410536 0.002415729 0.0 0.0 0.0
0.0 0.0 0.0 0.0009797538 0.0019548277 0.0015856001 0.0028690328 0.0
0.0007283172 0.0013447232 0.0012421041 0.0021080396 0.0 0.00026560645 3.0715137e-06 0.0002305733
0.0001407471 0.000604795 0.0 9.018126e-05 0.0 0.0050459937 0.00028998053 0.0009678427
0.0 0.0 0.001290422 0.00079838594 0.0017146204 5.352666e-06 0.0017870739 0.0013546279
0.0008466354 0.0013406507 0.0 0.0 0.0 0.0 0.0 0.0
0.00079031725 0.0004891911 0.0011406941 0.00096191873 0.0 0.00038791995 0.0015418862 0.000516551
0.0013314765 0.0 8.330427e-07 1.295167e-07 4.5915723e-07 1.0279865e-06 0.00051421137 0.0
5.253127e-05 0.0 0.0037082485 1.2694753e-07 0.0009155142 0.0 0.0 0.0011415882
0.00087250053 0.008750538 5.575092e-05 0.010452462 0.007578003 0.0077481824 0.0096353525 0.0
0.0 0.0 0.0 0.0 0.0 0.004727254 0.0039375713 0.0070051933
0.010460924 0.0 0.009480531 0.0030652187 0.0068170866 0.009722198 0.0 3.1219104e-05
0.00030432633 0.0001934007 0.00033516902 0.0032308986 0.0 9.5866264e-05 0.0 0.009041751
4.4723583e-05 0.0073208115 0.0 0.0 0.059589703 0.06224898 0.040862978 2.4318715e-06
0.0008526682 0.0021788508 0.000615671 0.0005309908 0.0 0.0 0.0 0.0
0.0 0.0 0.0005007366 0.00061082776 0.00055345014 0.0005072292 0.0 0.0006778445
0.00047593427 0.00032474115 0.00054062303 0.0 1.1752408e-06 2.4209774e-06 1.6152444e-06 5.5480205e-06
0.00044754852 0.0 3.828665e-05 0.0 0.0017161891 3.3533036e-06 0.0009966032 0.0
0.0 0.0009505344 0.00070025 0.0019518372 9.6702115e-06 0.0018730105 0.0026355658 0.001496531
0.002935157 0.0 0.0 0.0 0.0 0.0 0.0 0.0012440564
0.001089585 0.004687158 0.0033803596 0.0 0.0008499718 0.00052863575 0.0031787686 0.0016255758
0.0 1.6177062e-05 1.1080103e-05 1.620844e-05 5.8922215e-05 0.00064690073 0.0 2.3430162e-05
0.0 0.0053320555 6.3250984e-05 0.0015603118 0.0 0.0 0.0024929782 0.004021261
0.005938405 1.1815421e-05 0.00263764 0.0010969323 0.0017248567 0.0016206626 0.0 0.0
0.0 0.0 0.0 0.0 0.0013891563 0.0016618539 0.002175919 0.0014840182
0.0 0.0015730709 0.0012523236 0.002307361 0.0056253825 0.0 3.735599e-07 7.9556486e-07
3.8907e-07 1.3921677e-06 0.0012846979 0.0 5.411218e-05 0.0 0.003473922 7.721153e-07
0.0011250041 0.0 0.0 0.0010544836 0.0027237225 0.0020047694 0.00010471834 0.022139845
0.0041189664 0.012958125 0.0069170366 0.0 0.0 0.0 0.0 0.0
0.0 0.010836482 0.0063254866 0.01512855 0.005463173 0.0 0.0018789591 0.001488802
0.0018894908 0.0040398 0.0 6.1242376e-05 1.5985794e-05 5.6477384e-05 1.9605288e-05 0.0005970649
0.0 0.00036322523 0.0 0.011224924 1.1407936e-05 0.0035835481 0.0 0.0
00000000: b8c6 b036 8c20 013b b37c 7e3a 688f 953a
00000010: 3551 1e3b 0000 0000 0000 0000 0000 0000
00000020: 0000 0000 0000 0000 0000 0000 156b 803a
00000030: 911c 003b e9d3 cf3a 6206 3c3b 0000 0000
00000040: 8aec 3e3a 6c41 b03a 19ce a23a 0927 0a3b
00000050: 0000 0000 1841 8b39 3420 4e36 0dc6 7139
00000060: 8395 1339 1b8b 1e3a 0000 0000 b21f bd38
00000070: 0000 0000 dd58 a53b 8708 9839 d3b6 7d3a
00000080: 0000 0000 0000 0000 6123 a93a c64a 513a
00000090: 1dbd e03a 0d9b b336 403c ea3a c58d b13a
000000a0: bdf0 5d3a c6b8 af3a 0000 0000 0000 0000
000000b0: 0000 0000 0000 0000 0000 0000 0000 0000
000000c0: 4b2d 4f3a 0f3d 003a 5883 953a 4629 7c3a
000000d0: 0000 0000 bc61 cb39 1e19 ca3a 2769 073a
000000e0: f084 ae3a 0000 0000 429e 5f35 4811 0b34
000000f0: 1782 f634 59f9 8935 24cc 063a 0000 0000
00000100: 0655 5c38 0000 0000 1606 733b 124f 0834
00000110: 1eff 6f3a 0000 0000 0000 0000 58a1 953a
00000120: 85b8 643a 6b5e 0f3c 18d6 6938 ce40 2b3c
00000130: e650 f83b 77e4 fd3b 99dd 1d3c 0000 0000
00000140: 0000 0000 0000 0000 0000 0000 0000 0000
00000150: 0000 0000 15e7 9a3b be06 813b d28b e53b
00000160: 4c64 2b3c 0000 0000 3b54 1b3c d6e1 483b
00000170: de61 df3b db49 1f3c 0000 0000 42f1 0238
00000180: fd8d 9f39 9bcb 4a39 a0b9 af39 7cbd 533b
00000190: 0000 0000 cf0b c938 0000 0000 da23 143c
000001a0: 9595 3b38 6be3 ef3b 0000 0000 0000 0000
000001b0: 5514 743d c9f8 7e3d f05f 273d 3c33 2336
000001c0: 9885 5f3a 0dcb 0e3b fb64 213a 3032 0b3a
000001d0: 0000 0000 0000 0000 0000 0000 0000 0000
000001e0: 0000 0000 0000 0000 dd43 033a f51f 203a
000001f0: 6915 113a 93f7 043a 0000 0000 60b1 313a
00000200: d186 f939 0542 aa39 99b8 0d3a 0000 0000
00000210: f7bc 9d35 1378 2236 60cb d835 2229 ba36
00000220: f2a4 ea39 0000 0000 fa95 2038 0000 0000
00000230: c0f1 e03a 5109 6136 74a0 823a 0000 0000
00000240: 0000 0000 492d 793a fb90 373a cad4 ff3a
00000250: 3e3d 2237 ce7f f53a 75b9 2c3b 3f27 c43a
00000260: c35b 403b 0000 0000 0000 0000 0000 0000
00000270: 0000 0000 0000 0000 0000 0000 9b0f a33a
00000280: 68d0 8e3a bb96 993b 0689 5d3b 0000 0000
00000290: a4d0 5e3a 2594 0a3a e352 503b 4611 d53a
000002a0: 0000 0000 fab3 8737 aee4 3937 5cf7 8737
000002b0: 3f23 7738 c694 293a 0000 0000 e48b c437
000002c0: 0000 0000 86b8 ae3b 9da5 8438 6083 cc3a
000002d0: 0000 0000 0000 0000 3c61 233b c8c4 833b
000002e0: f496 c23b d93a 4637 42dc 2c3b f1c6 8f3a
000002f0: 9614 e23a 6a6c d43a 0000 0000 0000 0000
00000300: 0000 0000 0000 0000 0000 0000 0000 0000
00000310: 5a14 b63a 90d2 d93a dd99 0e3b 6383 c23a
00000320: 0000 0000 802f ce3a 0225 a43a 1837 173b
00000330: 2155 b83b 0000 0000 af8d c834 cd8e 5535
00000340: 60e1 d034 85da ba35 4f63 a83a 0000 0000
00000350: 83f6 6238 0000 0000 bdaa 633b 5c43 4f35
00000360: e074 933a 0000 0000 0000 0000 9936 8a3a
00000370: 7b80 323b 7362 033b 3b9c db38 9f5e b53c
00000380: 65f8 863b 514e 543c 4fa8 e23b 0000 0000
00000390: 0000 0000 0000 0000 0000 0000 0000 0000
000003a0: 0000 0000 808b 313c 0746 cf3b bddd 773c
000003b0: 6b04 b33b 0000 0000 6847 f63a e823 c33a
000003c0: caa8 f73a 4c60 843b 0000 0000 406f 8038
000003d0: 3b19 8637 21e2 6c38 0976 a437 5984 1c3a
000003e0: 0000 0000 446f be39 0000 0000 bee8 373c
000003f0: b664 3f37 f6d9 6a3b 0000 0000 0000 0000

exp_avg f4 [43]
-0.022130683 0.05780765 0.031920757 -0.009254833 -0.0049794726 -0.015199662 -0.024937475 -0.0295922
-0.034746513 0.033396352 0.02995547 -0.032331247 0.028551206 0.032774344 -0.0011181562 -0.032628097
-0.060504146 -0.060598135 -0.1145927 0.007834212 0.0007483525 -0.008016133 -0.012759373 -0.013027044
0.0100875385 -0.028274633 -7.9302714e-05 0.062032506 -0.03158806 -0.006948195 0.01753591 0.0061944537
-0.052769434 0.009040234 -0.008327998 -0.04673605 0.0051808734 -0.047460172 0.030261718 -0.016529663
-0.02061327 0.012362752 -0.009212649
00000000: 684b b5bc b7c7 6c3d 57bf 023d 95a1 17bc
00000010: d82a a3bb 0108 79bc ad49 ccbc 576b f2bc
00000020: 5c52 0ebd 9dca 083d 2c65 f53c c56d 04bd
00000030: 38e4 e93c 643e 063d 198f 92ba 0aa5 05bd
00000040: 32d3 77bd c035 78bd 94af eabd 115b 003c
00000050: 162d 443a 1956 03bc b00c 51bc 626f 55bc
00000060: 3446 253c 34a0 e7bc 524f a6b8 cc15 7e3d
00000070: 7b62 01bd afad e3bb 78a7 8f3c d8fa ca3b
00000080: c324 58bd 7d1d 143c 2872 08bc 4d6e 3fbd
00000090: 51c4 a93b 9965 42bd 6ce7 f73c 3769 87bc
000000a0: 29dd a8bc 248d 4a3c a7f0 16bc

exp_avg_sq f4 [43]
0.0015837118 0.0016008858 0.01644089 0.0007142642 0.0028510706 0.0035115979 0.018012285 0.0025580437
0.0036407094 0.006765358 0.008033589 0.0036052074 0.0013115375 0.0019418943 0.0042588003 0.0033523324
0.0060453783 0.010967632 0.009903707 0.012546021 0.0013490106 0.00078460906 0.0043242383 0.0046450156
0.00047232918 0.0033278174 0.0030224568 0.0072032944 0.020040182 0.007663238 0.005414528 0.0010095425
0.0041517485 0.0034505571 0.0012529563 0.007342813 0.0012697217 0.0008588764 0.006276259 0.003838574
0.009829983 0.0020012956 0.003501676
00000000: 8d94 cf3a d0d4 d13a 0caf 863c 763d 3b3a
00000010: 07d9 3a3b d622 663b 808e 933c daa4 273b
00000020: f898 6e3b f0af dd3b 519f 033c 5845 6c3b
00000030: e5e7 ab3a 2987 fe3a 688d 8b3b ceb2 5b3b
00000040: 4f18 c63b 95b1 333c 2843 223c d38d 4d3c
00000050: 49d1 b03a 39ae 4d3a 57b2 8d3b 3735 983b
00000060: f3a2 f739 8317 5a3b 6914 463b 9d09 ec3b
00000070: 4f2b a43c e61b fb3b 5a6c b13b a052 843a
00000080: 640b 883b be22 623b 3d3a a43a fb9b f03b
00000090: ca6c a63a 3826 613a 14a9 cd3b 9690 7b3b
000000a0: f00d 213c 2b28 033b 607c 653b

exp_avg f4 [29, 43]
-0.011821396 -0.01847458 -0.019464066 0.0051701795 -0.019378455 0.0024791292 -0.0023777182 -0.018468492
-0.01719403 -0.009148216 -0.009097474 0.0031028346 -0.021309193 -0.011097305 0.0005485292 -0.019479077
0.00074994203 -0.0005756049 -0.005132803 -0.011261031 -0.007264202 0.027751595 -0.011221488 0.016438521
-0.019668331 -0.0044462997 -0.028573448 0.013469432 0.0037361307 0.006739754 -0.0041754814 -0.014184675
-0.006807182 0.009962632 -0.005354316 0.014018824 -0.0104135 0.027152102 -0.016656762 -0.008339131
-0.018283283 -0.00454777 -0.018261436 -0.005632971 -0.005791555 0.004545271 0.01103546 -0.021021333
0.0010517612 0.024856068 -0.015886018 0.00553415 0.0044327304 -0.0074835983 0.010115207 -0.030012136
0.0026860829 0.040890545 -0.010417627 -0.032261323 -0.00886469 0.01821468 -0.00022387679 0.0009606596
0.0018415439 0.009156959 -0.006138279 -0.002410169 -0.009908176 -0.022195632 0.003905939 -0.0065318053
0.026465405 0.034965537 -0.008582912 0.009763688 0.02311376 0.0029444315 0.0006683427 -0.012766309
0.007322937 0.008445486 -0.021794379 -0.041054364 -0.004988039 0.00043790214 -0.008930864 0.015726915
0.016083734 -0.014782042 0.012284485 0.0014417791 -0.014353465 0.014183239 0.0025411993 0.0030022925
0.0038111089 -0.015318222 0.036542706 -0.020713873 -0.017723715 0.013069076 0.02879436 0.0065994114
0.0014689761 -0.0013121704 -0.00346073 -0.01656161 0.009323128 0.0050615203 -0.0023107512 -0.0058436184
-0.0030233718 0.017222008 0.0060104006 -0.007904768 0.016600542 0.011200252 0.0107577685 -0.014607833
0.018812146 0.027065845 -0.00095258286 -0.021536494 0.032415256 0.016461005 0.010286198 -0.016394867
0.010659055 -0.021071844 -0.008017364 -0.011439945 -0.013518021 -0.0025155852 -0.014820124 -0.025047027
0.005517472 -0.011002979 0.0066044605 0.0012553984 -0.008130787 -0.003510715 -0.007715709 -0.0012979071
0.008443395 0.01535201 0.021399414 0.015457888 -0.003143888 -0.007460898 0.0046169595 0.011837957
0.005067767 -0.007023545 0.004687394 -0.010219201 0.017844072 0.02104031 -0.0016873324 0.0046266755
0.022807593 0.03193917 -0.036702998 0.014693144 0.020399446 0.010643559 -0.0004090588 0.012831605
-0.004133599 0.003450699 -0.031664845 0.012589123 -0.0010211347 -0.038872823 -0.016771413 -0.007822972
-0.0037336396 0.0074755372 -0.00071840355 -0.016479647 0.008890192 0.01701527 -0.005692506 0.011372465
-0.028724229 -0.012449609 -0.0027950811 -0.001818872 -0.027728073 0.0061248983 -0.016606275 -0.0074632782
-0.01940603 0.014595332 0.0042960397 0.018056296 -0.0076529956 0.0047561247 -0.024077741 -0.005919747
0.009283674 0.02013516 0.021646608 -0.03786952 0.018804777 0.006413215 -0.01969023 -0.006633732
-0.023151001 -0.0025104533 0.012671326 -0.000707688 -0.016262 -0.012007357 -0.012463784 -0.01973817
-0.022897905 0.019954773 0.008533803 -0.033027347 -0.020604154 0.00070748123 0.012164498 0.021080147
-0.0016686085 -0.044756103 0.010499051 -0.0027042672 0.019352306 0.016113628 0.02027479 -0.034063347
0.024435187 -0.0071566463 0.007949503 0.03977318 0.011420118 0.02945823 0.008543864 0.024180157
0.0008072178 0.005870675 -0.046584617 -0.009765571 0.043104697 0.012263157 -0.033054564 0.022716226
0.045247085 -0.020862661 -0.0128741 -0.011461606 -0.0064575844 0.022852259 -0.015616561 -0.010633268
00000000: 87ae 41bc 0158 97bc 1b73 9fbc 9c6a a93b
00000010: 91bf 9ebc e378 223b 7ed3 1bbb 3c4b 97bc
00000020: 7fda 8cbc 66e2 15bc 920d 15bc ed58 4b3b
00000030: 9e90 aebc 79d1 35bc 2ccb 0f3a 9692 9fbc
00000040: c297 443a 31e4 16ba 1331 a8bb 3080 38bc
00000050: 8b08 eebb 5057 e33c 55da 37bc 14aa 863c
00000060: 7b1f a1bc 44b2 91bb dd12 eabc e4ae 5c3c
00000070: dfd9 743b 28d9 dc3b 7ad2 88bb d766 68bc
00000080: c80e dfbb 4f3a 233c 4273 afbb 36af 653c
00000090: 629d 2abc 166e de3c c373 88bc daa0 08bc
000000a0: d3c6 95bc 7605 95bb 0299 95bc c994 b8bb
000000b0: 16c7 bdbb 7ff0 943b 13ce 343c ee34 acbc
000000c0: 40db 893a f49e cb3c 6523 82bc d157 b53b
000000d0: 7040 913b f938 f5bb 41ba 253c 03dc f5bc
000000e0: fe08 303b d87c 273d b2ae 2abc 7324 04bd
000000f0: 343d 11bc f436 953c 78c0 6ab9 c6d4 7b3a
00000100: f65f f13a 1207 163c 9e23 c9bb edf3 1dbb
00000110: e755 22bc 9dd3 b5bc c8fa 7f3b c108 d6bb
00000120: facd d83c 0638 0f3d 589f 0cbc e0f7 1f3c
00000130: 1159 bd3c 5df7 403b b833 2f3a c829 51bc
00000140: 3ff5 ef3b f05e 0a3c 208a b2bc 9f28 28bd
00000150: b472 a3bb 3b96 e539 c252 12bc bbd5 803c
00000160: 09c2 833c 6130 72bc dd44 493c 14fa bc3a
00000170: cc2a 6bbc d160 683c 408a 263b 1cc2 443b
00000180: ccc3 793b 48f9 7abc cead 153d 24b0 a9bc
00000190: 5331 91bc ae1f 563c 26e2 eb3c e03f d83b
000001a0: a98a c03a 22fd abba 6acd 62bb 37ac 87bc
000001b0: 08c0 183c 1cdb a53b f96f 17bb d37b bfbb
000001c0: c323 46bb 2b15 8d3c e5f2 c43b 0083 01bc
000001d0: dcfd 873c 4381 373c 5a41 303c b155 6fbc
000001e0: ee1b 9a3c 31b9 dd3c c1b6 79ba 4d6d b0bc
000001f0: dcc5 043d 3bd9 863c 7187 283c 874e 86bc
00000200: 51a3 2e3c dc9e acbc 435b 03bc 9b6e 3bbc
00000210: b17a 5dbc 84dc 24bb 1bd0 72bc 6c2f cdbc
00000220: e9cb b43b d745 34bc 3b6a d83b 2e8c a43a
00000230: fe36 05bc 0614 66bb 0fd4 fcbb 891e aaba
00000240: 2a56 0a3c ff86 7b3c d34d af3c 1543 7d3c
00000250: b009 4ebb 8c7a f4bb dd49 973b fef3 413c
00000260: 830f a63b c425 e6bb b698 993b 706e 27bc
00000270: bb2d 923c ba5c ac3c 7b29 ddba 5e9b 973b
00000280: fdd6 ba3c a6d2 023d e255 16bd 83bb 703c
00000290: bd1c a73c 5262 2e3c f176 d6b9 a73b 523c
000002a0: 2473 87bb 1f25 623b ffb2 01bd 9c42 4e3c
000002b0: 98d7 85ba 1c39 1fbd 3464 89bc ec2b 00bc
000002c0: 14b0 74bb 5af5 f43b 3f53 3cba 5300 87bc
000002d0: 2ba8 113c 9c63 8b3c 3488 babb 9353 3a3c
000002e0: 134f ebbc 72f9 4bbc ae2d 37bb 3867 eeba
000002f0: fc25 e3bc 5fb3 c83b e209 88bc 848e f4bb
00000300: 65f9 9ebc 4221 6f3c cbc5 8c3b ccea 933c
00000310: fbc5 fabb 44d9 9b3b af3e c5bc 70fa c1bb
00000320: 8d1a 183c 7ef2 a43c 3a54 b13c 121d 1bbd
00000330: 7a0c 9a3c f225 d23b 684d a1bc c75f d9bb
00000340: 2ba7 bdbc 6b86 24bb 659b 4f3c 2384 39ba
00000350: e337 85bc 81ba 44bc e634 4cbc f1b1 a1bc
00000360: 6394 bbbc 3178 a33c 5dd1 0b3c af47 07bd
00000370: 0bca a8bc 4376 393a 9a4d 473c 46b0 ac3c
00000380: 36b5 daba 2d52 37bd 3604 2c3c 133a 31bb
00000390: ba88 9e3c ba00 843c 5117 a63c 0286 0bbd
000003a0: 4d2c c83c 4d82 eabb a23e 023c 34e9 223d
000003b0: 721b 3b3c 6352 f13c 90fb 0b3c 7715 c63c
000003c0: 789b 533a cb5e c03b 83cf 3ebd c6ff 1fbc
000003d0: 8d8e 303d 69eb 483c 3964 07bd 6117 ba3c
000003e0: 0255 393d 2ce8 aabc e4ed 52bc 76c9 3bbc
000003f0: 259a d3bb a934 bb3c 9bdc 7fbc 2937 2ebc
